{"format": "graph-model", "generatedBy": "1.12.0", "convertedBy": "TensorFlow.js Converter v1.7.4r1", "userDefinedMetadata": {"signature": {"inputs": {"input:0": {"name": "input:0", "dtype": "DT_FLOAT", "tensorShape": {"dim": [{"size": "1"}, {"size": "128"}, {"size": "128"}, {"size": "3"}]}}}, "outputs": {"classificators:0": {"name": "classificators:0", "dtype": "DT_FLOAT", "tensorShape": {"dim": [{"size": "1"}, {"size": "896"}, {"size": "1"}]}}, "regressors:0": {"name": "regressors:0", "dtype": "DT_FLOAT", "tensorShape": {"dim": [{"size": "1"}, {"size": "896"}, {"size": "16"}]}}}}}, "modelTopology": {"node": [{"name": "transpose_33", "op": "Const", "attr": {"dtype": {"type": "DT_FLOAT"}, "value": {"tensor": {"dtype": "DT_FLOAT", "tensorShape": {"dim": [{"size": "1"}, {"size": "1"}, {"size": "88"}, {"size": "2"}]}}}}}, {"name": "Const_67", "op": "Const", "attr": {"dtype": {"type": "DT_FLOAT"}, "value": {"tensor": {"dtype": "DT_FLOAT", "tensorShape": {"dim": [{"size": "2"}]}}}}}, {"name": "stack", "op": "Const", "attr": {"dtype": {"type": "DT_INT32"}, "value": {"tensor": {"dtype": "DT_INT32", "tensorShape": {"dim": [{"size": "3"}]}}}}}, {"name": "transpose_34", "op": "Const", "attr": {"value": {"tensor": {"dtype": "DT_FLOAT", "tensorShape": {"dim": [{"size": "1"}, {"size": "1"}, {"size": "96"}, {"size": "6"}]}}}, "dtype": {"type": "DT_FLOAT"}}}, {"name": "Const_69", "op": "Const", "attr": {"value": {"tensor": {"dtype": "DT_FLOAT", "tensorShape": {"dim": [{"size": "6"}]}}}, "dtype": {"type": "DT_FLOAT"}}}, {"name": "stack_1", "op": "Const", "attr": {"dtype": {"type": "DT_INT32"}, "value": {"tensor": {"dtype": "DT_INT32", "tensorShape": {"dim": [{"size": "3"}]}}}}}, {"name": "transpose_35", "op": "Const", "attr": {"value": {"tensor": {"dtype": "DT_FLOAT", "tensorShape": {"dim": [{"size": "1"}, {"size": "1"}, {"size": "88"}, {"size": "32"}]}}}, "dtype": {"type": "DT_FLOAT"}}}, {"name": "Const_71", "op": "Const", "attr": {"dtype": {"type": "DT_FLOAT"}, "value": {"tensor": {"dtype": "DT_FLOAT", "tensorShape": {"dim": [{"size": "32"}]}}}}}, {"name": "stack_2", "op": "Const", "attr": {"value": {"tensor": {"dtype": "DT_INT32", "tensorShape": {"dim": [{"size": "3"}]}}}, "dtype": {"type": "DT_INT32"}}}, {"name": "transpose_31", "op": "Const", "attr": {"value": {"tensor": {"dtype": "DT_FLOAT", "tensorShape": {"dim": [{"size": "3"}, {"size": "3"}, {"size": "96"}, {"size": "1"}]}}}, "dtype": {"type": "DT_FLOAT"}}}, {"name": "transpose_32", "op": "Const", "attr": {"dtype": {"type": "DT_FLOAT"}, "value": {"tensor": {"dtype": "DT_FLOAT", "tensorShape": {"dim": [{"size": "1"}, {"size": "1"}, {"size": "96"}, {"size": "96"}]}}}}}, {"name": "Const_65", "op": "Const", "attr": {"dtype": {"type": "DT_FLOAT"}, "value": {"tensor": {"dtype": "DT_FLOAT", "tensorShape": {"dim": [{"size": "96"}]}}}}}, {"name": "transpose_29", "op": "Const", "attr": {"value": {"tensor": {"dtype": "DT_FLOAT", "tensorShape": {"dim": [{"size": "3"}, {"size": "3"}, {"size": "96"}, {"size": "1"}]}}}, "dtype": {"type": "DT_FLOAT"}}}, {"name": "transpose_30", "op": "Const", "attr": {"value": {"tensor": {"dtype": "DT_FLOAT", "tensorShape": {"dim": [{"size": "1"}, {"size": "1"}, {"size": "96"}, {"size": "96"}]}}}, "dtype": {"type": "DT_FLOAT"}}}, {"name": "Const_61", "op": "Const", "attr": {"value": {"tensor": {"dtype": "DT_FLOAT", "tensorShape": {"dim": [{"size": "96"}]}}}, "dtype": {"type": "DT_FLOAT"}}}, {"name": "transpose_27", "op": "Const", "attr": {"value": {"tensor": {"dtype": "DT_FLOAT", "tensorShape": {"dim": [{"size": "3"}, {"size": "3"}, {"size": "96"}, {"size": "1"}]}}}, "dtype": {"type": "DT_FLOAT"}}}, {"name": "transpose_28", "op": "Const", "attr": {"dtype": {"type": "DT_FLOAT"}, "value": {"tensor": {"dtype": "DT_FLOAT", "tensorShape": {"dim": [{"size": "1"}, {"size": "1"}, {"size": "96"}, {"size": "96"}]}}}}}, {"name": "Const_57", "op": "Const", "attr": {"value": {"tensor": {"dtype": "DT_FLOAT", "tensorShape": {"dim": [{"size": "96"}]}}}, "dtype": {"type": "DT_FLOAT"}}}, {"name": "transpose_25", "op": "Const", "attr": {"value": {"tensor": {"dtype": "DT_FLOAT", "tensorShape": {"dim": [{"size": "3"}, {"size": "3"}, {"size": "96"}, {"size": "1"}]}}}, "dtype": {"type": "DT_FLOAT"}}}, {"name": "transpose_26", "op": "Const", "attr": {"value": {"tensor": {"dtype": "DT_FLOAT", "tensorShape": {"dim": [{"size": "1"}, {"size": "1"}, {"size": "96"}, {"size": "96"}]}}}, "dtype": {"type": "DT_FLOAT"}}}, {"name": "Const_53", "op": "Const", "attr": {"value": {"tensor": {"dtype": "DT_FLOAT", "tensorShape": {"dim": [{"size": "96"}]}}}, "dtype": {"type": "DT_FLOAT"}}}, {"name": "transpose_23", "op": "Const", "attr": {"value": {"tensor": {"dtype": "DT_FLOAT", "tensorShape": {"dim": [{"size": "3"}, {"size": "3"}, {"size": "88"}, {"size": "1"}]}}}, "dtype": {"type": "DT_FLOAT"}}}, {"name": "transpose_24", "op": "Const", "attr": {"value": {"tensor": {"dtype": "DT_FLOAT", "tensorShape": {"dim": [{"size": "1"}, {"size": "1"}, {"size": "88"}, {"size": "96"}]}}}, "dtype": {"type": "DT_FLOAT"}}}, {"name": "Const_49", "op": "Const", "attr": {"dtype": {"type": "DT_FLOAT"}, "value": {"tensor": {"dtype": "DT_FLOAT", "tensorShape": {"dim": [{"size": "96"}]}}}}}, {"name": "transpose_21", "op": "Const", "attr": {"value": {"tensor": {"dtype": "DT_FLOAT", "tensorShape": {"dim": [{"size": "3"}, {"size": "3"}, {"size": "80"}, {"size": "1"}]}}}, "dtype": {"type": "DT_FLOAT"}}}, {"name": "transpose_22", "op": "Const", "attr": {"value": {"tensor": {"dtype": "DT_FLOAT", "tensorShape": {"dim": [{"size": "1"}, {"size": "1"}, {"size": "80"}, {"size": "88"}]}}}, "dtype": {"type": "DT_FLOAT"}}}, {"name": "Const_45", "op": "Const", "attr": {"value": {"tensor": {"dtype": "DT_FLOAT", "tensorShape": {"dim": [{"size": "88"}]}}}, "dtype": {"type": "DT_FLOAT"}}}, {"name": "transpose_19", "op": "Const", "attr": {"value": {"tensor": {"dtype": "DT_FLOAT", "tensorShape": {"dim": [{"size": "3"}, {"size": "3"}, {"size": "72"}, {"size": "1"}]}}}, "dtype": {"type": "DT_FLOAT"}}}, {"name": "transpose_20", "op": "Const", "attr": {"dtype": {"type": "DT_FLOAT"}, "value": {"tensor": {"dtype": "DT_FLOAT", "tensorShape": {"dim": [{"size": "1"}, {"size": "1"}, {"size": "72"}, {"size": "80"}]}}}}}, {"name": "Const_41", "op": "Const", "attr": {"value": {"tensor": {"dtype": "DT_FLOAT", "tensorShape": {"dim": [{"size": "80"}]}}}, "dtype": {"type": "DT_FLOAT"}}}, {"name": "transpose_17", "op": "Const", "attr": {"value": {"tensor": {"dtype": "DT_FLOAT", "tensorShape": {"dim": [{"size": "3"}, {"size": "3"}, {"size": "64"}, {"size": "1"}]}}}, "dtype": {"type": "DT_FLOAT"}}}, {"name": "transpose_18", "op": "Const", "attr": {"value": {"tensor": {"dtype": "DT_FLOAT", "tensorShape": {"dim": [{"size": "1"}, {"size": "1"}, {"size": "64"}, {"size": "72"}]}}}, "dtype": {"type": "DT_FLOAT"}}}, {"name": "Const_37", "op": "Const", "attr": {"dtype": {"type": "DT_FLOAT"}, "value": {"tensor": {"dtype": "DT_FLOAT", "tensorShape": {"dim": [{"size": "72"}]}}}}}, {"name": "transpose_15", "op": "Const", "attr": {"dtype": {"type": "DT_FLOAT"}, "value": {"tensor": {"dtype": "DT_FLOAT", "tensorShape": {"dim": [{"size": "3"}, {"size": "3"}, {"size": "56"}, {"size": "1"}]}}}}}, {"name": "transpose_16", "op": "Const", "attr": {"dtype": {"type": "DT_FLOAT"}, "value": {"tensor": {"dtype": "DT_FLOAT", "tensorShape": {"dim": [{"size": "1"}, {"size": "1"}, {"size": "56"}, {"size": "64"}]}}}}}, {"name": "Const_33", "op": "Const", "attr": {"value": {"tensor": {"dtype": "DT_FLOAT", "tensorShape": {"dim": [{"size": "64"}]}}}, "dtype": {"type": "DT_FLOAT"}}}, {"name": "transpose_13", "op": "Const", "attr": {"value": {"tensor": {"dtype": "DT_FLOAT", "tensorShape": {"dim": [{"size": "3"}, {"size": "3"}, {"size": "48"}, {"size": "1"}]}}}, "dtype": {"type": "DT_FLOAT"}}}, {"name": "transpose_14", "op": "Const", "attr": {"value": {"tensor": {"dtype": "DT_FLOAT", "tensorShape": {"dim": [{"size": "1"}, {"size": "1"}, {"size": "48"}, {"size": "56"}]}}}, "dtype": {"type": "DT_FLOAT"}}}, {"name": "Const_29", "op": "Const", "attr": {"value": {"tensor": {"dtype": "DT_FLOAT", "tensorShape": {"dim": [{"size": "56"}]}}}, "dtype": {"type": "DT_FLOAT"}}}, {"name": "transpose_11", "op": "Const", "attr": {"dtype": {"type": "DT_FLOAT"}, "value": {"tensor": {"dtype": "DT_FLOAT", "tensorShape": {"dim": [{"size": "3"}, {"size": "3"}, {"size": "42"}, {"size": "1"}]}}}}}, {"name": "transpose_12", "op": "Const", "attr": {"value": {"tensor": {"dtype": "DT_FLOAT", "tensorShape": {"dim": [{"size": "1"}, {"size": "1"}, {"size": "42"}, {"size": "48"}]}}}, "dtype": {"type": "DT_FLOAT"}}}, {"name": "Const_25", "op": "Const", "attr": {"dtype": {"type": "DT_FLOAT"}, "value": {"tensor": {"dtype": "DT_FLOAT", "tensorShape": {"dim": [{"size": "48"}]}}}}}, {"name": "transpose_9", "op": "Const", "attr": {"value": {"tensor": {"dtype": "DT_FLOAT", "tensorShape": {"dim": [{"size": "3"}, {"size": "3"}, {"size": "36"}, {"size": "1"}]}}}, "dtype": {"type": "DT_FLOAT"}}}, {"name": "transpose_10", "op": "Const", "attr": {"value": {"tensor": {"dtype": "DT_FLOAT", "tensorShape": {"dim": [{"size": "1"}, {"size": "1"}, {"size": "36"}, {"size": "42"}]}}}, "dtype": {"type": "DT_FLOAT"}}}, {"name": "Const_21", "op": "Const", "attr": {"value": {"tensor": {"dtype": "DT_FLOAT", "tensorShape": {"dim": [{"size": "42"}]}}}, "dtype": {"type": "DT_FLOAT"}}}, {"name": "transpose_7", "op": "Const", "attr": {"value": {"tensor": {"dtype": "DT_FLOAT", "tensorShape": {"dim": [{"size": "3"}, {"size": "3"}, {"size": "32"}, {"size": "1"}]}}}, "dtype": {"type": "DT_FLOAT"}}}, {"name": "transpose_8", "op": "Const", "attr": {"value": {"tensor": {"dtype": "DT_FLOAT", "tensorShape": {"dim": [{"size": "1"}, {"size": "1"}, {"size": "32"}, {"size": "36"}]}}}, "dtype": {"type": "DT_FLOAT"}}}, {"name": "Const_17", "op": "Const", "attr": {"value": {"tensor": {"dtype": "DT_FLOAT", "tensorShape": {"dim": [{"size": "36"}]}}}, "dtype": {"type": "DT_FLOAT"}}}, {"name": "transpose_5", "op": "Const", "attr": {"value": {"tensor": {"dtype": "DT_FLOAT", "tensorShape": {"dim": [{"size": "3"}, {"size": "3"}, {"size": "28"}, {"size": "1"}]}}}, "dtype": {"type": "DT_FLOAT"}}}, {"name": "transpose_6", "op": "Const", "attr": {"value": {"tensor": {"dtype": "DT_FLOAT", "tensorShape": {"dim": [{"size": "1"}, {"size": "1"}, {"size": "28"}, {"size": "32"}]}}}, "dtype": {"type": "DT_FLOAT"}}}, {"name": "Const_13", "op": "Const", "attr": {"value": {"tensor": {"dtype": "DT_FLOAT", "tensorShape": {"dim": [{"size": "32"}]}}}, "dtype": {"type": "DT_FLOAT"}}}, {"name": "transpose_3", "op": "Const", "attr": {"value": {"tensor": {"dtype": "DT_FLOAT", "tensorShape": {"dim": [{"size": "3"}, {"size": "3"}, {"size": "24"}, {"size": "1"}]}}}, "dtype": {"type": "DT_FLOAT"}}}, {"name": "transpose_4", "op": "Const", "attr": {"value": {"tensor": {"dtype": "DT_FLOAT", "tensorShape": {"dim": [{"size": "1"}, {"size": "1"}, {"size": "24"}, {"size": "28"}]}}}, "dtype": {"type": "DT_FLOAT"}}}, {"name": "Const_9", "op": "Const", "attr": {"value": {"tensor": {"dtype": "DT_FLOAT", "tensorShape": {"dim": [{"size": "28"}]}}}, "dtype": {"type": "DT_FLOAT"}}}, {"name": "transpose_1", "op": "Const", "attr": {"value": {"tensor": {"dtype": "DT_FLOAT", "tensorShape": {"dim": [{"size": "3"}, {"size": "3"}, {"size": "24"}, {"size": "1"}]}}}, "dtype": {"type": "DT_FLOAT"}}}, {"name": "transpose_2", "op": "Const", "attr": {"value": {"tensor": {"dtype": "DT_FLOAT", "tensorShape": {"dim": [{"size": "1"}, {"size": "1"}, {"size": "24"}, {"size": "24"}]}}}, "dtype": {"type": "DT_FLOAT"}}}, {"name": "Const_5", "op": "Const", "attr": {"dtype": {"type": "DT_FLOAT"}, "value": {"tensor": {"dtype": "DT_FLOAT", "tensorShape": {"dim": [{"size": "24"}]}}}}}, {"name": "input", "op": "Placeholder", "attr": {"dtype": {"type": "DT_FLOAT"}, "shape": {"shape": {"dim": [{"size": "1"}, {"size": "128"}, {"size": "128"}, {"size": "3"}]}}}}, {"name": "transpose", "op": "Const", "attr": {"value": {"tensor": {"dtype": "DT_FLOAT", "tensorShape": {"dim": [{"size": "5"}, {"size": "5"}, {"size": "3"}, {"size": "24"}]}}}, "dtype": {"type": "DT_FLOAT"}}}, {"name": "Const_1", "op": "Const", "attr": {"dtype": {"type": "DT_FLOAT"}, "value": {"tensor": {"dtype": "DT_FLOAT", "tensorShape": {"dim": [{"size": "24"}]}}}}}, {"name": "channel_padding_2/paddings", "op": "Const", "attr": {"value": {"tensor": {"dtype": "DT_INT32", "tensorShape": {"dim": [{"size": "4"}, {"size": "2"}]}}}, "dtype": {"type": "DT_INT32"}}}, {"name": "classificators/axis", "op": "Const", "attr": {"value": {"tensor": {"dtype": "DT_INT32", "tensorShape": {}}}, "dtype": {"type": "DT_INT32"}}}, {"name": "channel_padding_4/paddings", "op": "Const", "attr": {"value": {"tensor": {"dtype": "DT_INT32", "tensorShape": {"dim": [{"size": "4"}, {"size": "2"}]}}}, "dtype": {"type": "DT_INT32"}}}, {"name": "channel_padding_10/paddings", "op": "Const", "attr": {"dtype": {"type": "DT_INT32"}, "value": {"tensor": {"dtype": "DT_INT32", "tensorShape": {"dim": [{"size": "4"}, {"size": "2"}]}}}}}, {"name": "transpose_36", "op": "Const", "attr": {"value": {"tensor": {"dtype": "DT_FLOAT", "tensorShape": {"dim": [{"size": "1"}, {"size": "1"}, {"size": "96"}, {"size": "96"}]}}}, "dtype": {"type": "DT_FLOAT"}}}, {"name": "Const_73", "op": "Const", "attr": {"dtype": {"type": "DT_FLOAT"}, "value": {"tensor": {"dtype": "DT_FLOAT", "tensorShape": {"dim": [{"size": "96"}]}}}}}, {"name": "stack_3", "op": "Const", "attr": {"value": {"tensor": {"dtype": "DT_INT32", "tensorShape": {"dim": [{"size": "3"}]}}}, "dtype": {"type": "DT_INT32"}}}, {"name": "activation/Relu", "op": "_FusedConv2D", "input": ["input", "transpose", "Const_1"], "device": "/device:CPU:0", "attr": {"dilations": {"list": {"i": ["1", "1", "1", "1"]}}, "T": {"type": "DT_FLOAT"}, "data_format": {"s": "TkhXQw=="}, "strides": {"list": {"i": ["1", "2", "2", "1"]}}, "use_cudnn_on_gpu": {"b": true}, "explicit_paddings": {"list": {}}, "num_args": {"i": "1"}, "epsilon": {"f": 0.0}, "padding": {"s": "U0FNRQ=="}, "fused_ops": {"list": {"s": ["Qmlhc0FkZA==", "UmVsdQ=="]}}}}, {"name": "depthwise_conv2d", "op": "DepthwiseConv2dNative", "input": ["activation/Relu", "transpose_1"], "attr": {"dilations": {"list": {"i": ["1", "1", "1", "1"]}}, "padding": {"s": "U0FNRQ=="}, "T": {"type": "DT_FLOAT"}, "data_format": {"s": "TkhXQw=="}, "strides": {"list": {"i": ["1", "1", "1", "1"]}}}}, {"name": "BiasAdd_2", "op": "_FusedConv2D", "input": ["depthwise_conv2d", "transpose_2", "Const_5"], "device": "/device:CPU:0", "attr": {"dilations": {"list": {"i": ["1", "1", "1", "1"]}}, "T": {"type": "DT_FLOAT"}, "strides": {"list": {"i": ["1", "1", "1", "1"]}}, "data_format": {"s": "TkhXQw=="}, "use_cudnn_on_gpu": {"b": true}, "explicit_paddings": {"list": {}}, "num_args": {"i": "1"}, "epsilon": {"f": 0.0}, "padding": {"s": "VkFMSUQ="}, "fused_ops": {"list": {"s": ["Qmlhc0FkZA=="]}}}}, {"name": "add", "op": "Add", "input": ["BiasAdd_2", "activation/Relu"], "attr": {"T": {"type": "DT_FLOAT"}}}, {"name": "activation_1/Relu", "op": "Relu", "input": ["add"], "attr": {"T": {"type": "DT_FLOAT"}}}, {"name": "depthwise_conv2d_1", "op": "DepthwiseConv2dNative", "input": ["activation_1/Relu", "transpose_3"], "attr": {"strides": {"list": {"i": ["1", "1", "1", "1"]}}, "data_format": {"s": "TkhXQw=="}, "padding": {"s": "U0FNRQ=="}, "dilations": {"list": {"i": ["1", "1", "1", "1"]}}, "T": {"type": "DT_FLOAT"}}}, {"name": "channel_padding", "op": "Pad", "input": ["activation_1/Relu", "channel_padding_2/paddings"], "attr": {"Tpaddings": {"type": "DT_INT32"}, "T": {"type": "DT_FLOAT"}}}, {"name": "BiasAdd_4", "op": "_FusedConv2D", "input": ["depthwise_conv2d_1", "transpose_4", "Const_9"], "device": "/device:CPU:0", "attr": {"dilations": {"list": {"i": ["1", "1", "1", "1"]}}, "T": {"type": "DT_FLOAT"}, "strides": {"list": {"i": ["1", "1", "1", "1"]}}, "data_format": {"s": "TkhXQw=="}, "explicit_paddings": {"list": {}}, "use_cudnn_on_gpu": {"b": true}, "num_args": {"i": "1"}, "epsilon": {"f": 0.0}, "padding": {"s": "VkFMSUQ="}, "fused_ops": {"list": {"s": ["Qmlhc0FkZA=="]}}}}, {"name": "add_1", "op": "Add", "input": ["BiasAdd_4", "channel_padding"], "attr": {"T": {"type": "DT_FLOAT"}}}, {"name": "activation_2/Relu", "op": "Relu", "input": ["add_1"], "attr": {"T": {"type": "DT_FLOAT"}}}, {"name": "depthwise_conv2d_2", "op": "DepthwiseConv2dNative", "input": ["activation_2/Relu", "transpose_5"], "attr": {"dilations": {"list": {"i": ["1", "1", "1", "1"]}}, "padding": {"s": "U0FNRQ=="}, "T": {"type": "DT_FLOAT"}, "data_format": {"s": "TkhXQw=="}, "strides": {"list": {"i": ["1", "2", "2", "1"]}}}}, {"name": "max_pooling2d/MaxPool", "op": "MaxPool", "input": ["activation_2/Relu"], "attr": {"ksize": {"list": {"i": ["1", "2", "2", "1"]}}, "padding": {"s": "U0FNRQ=="}, "T": {"type": "DT_FLOAT"}, "strides": {"list": {"i": ["1", "2", "2", "1"]}}, "data_format": {"s": "TkhXQw=="}}}, {"name": "BiasAdd_6", "op": "_FusedConv2D", "input": ["depthwise_conv2d_2", "transpose_6", "Const_13"], "device": "/device:CPU:0", "attr": {"T": {"type": "DT_FLOAT"}, "data_format": {"s": "TkhXQw=="}, "strides": {"list": {"i": ["1", "1", "1", "1"]}}, "use_cudnn_on_gpu": {"b": true}, "explicit_paddings": {"list": {}}, "num_args": {"i": "1"}, "epsilon": {"f": 0.0}, "padding": {"s": "VkFMSUQ="}, "fused_ops": {"list": {"s": ["Qmlhc0FkZA=="]}}, "dilations": {"list": {"i": ["1", "1", "1", "1"]}}}}, {"name": "channel_padding_1", "op": "Pad", "input": ["max_pooling2d/MaxPool", "channel_padding_2/paddings"], "attr": {"T": {"type": "DT_FLOAT"}, "Tpaddings": {"type": "DT_INT32"}}}, {"name": "add_2", "op": "Add", "input": ["BiasAdd_6", "channel_padding_1"], "attr": {"T": {"type": "DT_FLOAT"}}}, {"name": "activation_3/Relu", "op": "Relu", "input": ["add_2"], "attr": {"T": {"type": "DT_FLOAT"}}}, {"name": "depthwise_conv2d_3", "op": "DepthwiseConv2dNative", "input": ["activation_3/Relu", "transpose_7"], "attr": {"padding": {"s": "U0FNRQ=="}, "dilations": {"list": {"i": ["1", "1", "1", "1"]}}, "T": {"type": "DT_FLOAT"}, "strides": {"list": {"i": ["1", "1", "1", "1"]}}, "data_format": {"s": "TkhXQw=="}}}, {"name": "channel_padding_2", "op": "Pad", "input": ["activation_3/Relu", "channel_padding_2/paddings"], "attr": {"T": {"type": "DT_FLOAT"}, "Tpaddings": {"type": "DT_INT32"}}}, {"name": "BiasAdd_8", "op": "_FusedConv2D", "input": ["depthwise_conv2d_3", "transpose_8", "Const_17"], "device": "/device:CPU:0", "attr": {"T": {"type": "DT_FLOAT"}, "strides": {"list": {"i": ["1", "1", "1", "1"]}}, "data_format": {"s": "TkhXQw=="}, "explicit_paddings": {"list": {}}, "use_cudnn_on_gpu": {"b": true}, "num_args": {"i": "1"}, "epsilon": {"f": 0.0}, "padding": {"s": "VkFMSUQ="}, "fused_ops": {"list": {"s": ["Qmlhc0FkZA=="]}}, "dilations": {"list": {"i": ["1", "1", "1", "1"]}}}}, {"name": "add_3", "op": "Add", "input": ["BiasAdd_8", "channel_padding_2"], "attr": {"T": {"type": "DT_FLOAT"}}}, {"name": "activation_4/Relu", "op": "Relu", "input": ["add_3"], "attr": {"T": {"type": "DT_FLOAT"}}}, {"name": "depthwise_conv2d_4", "op": "DepthwiseConv2dNative", "input": ["activation_4/Relu", "transpose_9"], "attr": {"dilations": {"list": {"i": ["1", "1", "1", "1"]}}, "padding": {"s": "U0FNRQ=="}, "T": {"type": "DT_FLOAT"}, "data_format": {"s": "TkhXQw=="}, "strides": {"list": {"i": ["1", "1", "1", "1"]}}}}, {"name": "channel_padding_3", "op": "Pad", "input": ["activation_4/Relu", "channel_padding_4/paddings"], "attr": {"T": {"type": "DT_FLOAT"}, "Tpaddings": {"type": "DT_INT32"}}}, {"name": "BiasAdd_10", "op": "_FusedConv2D", "input": ["depthwise_conv2d_4", "transpose_10", "Const_21"], "device": "/device:CPU:0", "attr": {"dilations": {"list": {"i": ["1", "1", "1", "1"]}}, "T": {"type": "DT_FLOAT"}, "data_format": {"s": "TkhXQw=="}, "strides": {"list": {"i": ["1", "1", "1", "1"]}}, "use_cudnn_on_gpu": {"b": true}, "explicit_paddings": {"list": {}}, "num_args": {"i": "1"}, "epsilon": {"f": 0.0}, "padding": {"s": "VkFMSUQ="}, "fused_ops": {"list": {"s": ["Qmlhc0FkZA=="]}}}}, {"name": "add_4", "op": "Add", "input": ["BiasAdd_10", "channel_padding_3"], "attr": {"T": {"type": "DT_FLOAT"}}}, {"name": "activation_5/Relu", "op": "Relu", "input": ["add_4"], "attr": {"T": {"type": "DT_FLOAT"}}}, {"name": "depthwise_conv2d_5", "op": "DepthwiseConv2dNative", "input": ["activation_5/Relu", "transpose_11"], "attr": {"T": {"type": "DT_FLOAT"}, "data_format": {"s": "TkhXQw=="}, "strides": {"list": {"i": ["1", "2", "2", "1"]}}, "dilations": {"list": {"i": ["1", "1", "1", "1"]}}, "padding": {"s": "U0FNRQ=="}}}, {"name": "max_pooling2d_1/MaxPool", "op": "MaxPool", "input": ["activation_5/Relu"], "attr": {"data_format": {"s": "TkhXQw=="}, "strides": {"list": {"i": ["1", "2", "2", "1"]}}, "ksize": {"list": {"i": ["1", "2", "2", "1"]}}, "padding": {"s": "U0FNRQ=="}, "T": {"type": "DT_FLOAT"}}}, {"name": "BiasAdd_12", "op": "_FusedConv2D", "input": ["depthwise_conv2d_5", "transpose_12", "Const_25"], "device": "/device:CPU:0", "attr": {"T": {"type": "DT_FLOAT"}, "data_format": {"s": "TkhXQw=="}, "strides": {"list": {"i": ["1", "1", "1", "1"]}}, "use_cudnn_on_gpu": {"b": true}, "explicit_paddings": {"list": {}}, "num_args": {"i": "1"}, "epsilon": {"f": 0.0}, "padding": {"s": "VkFMSUQ="}, "fused_ops": {"list": {"s": ["Qmlhc0FkZA=="]}}, "dilations": {"list": {"i": ["1", "1", "1", "1"]}}}}, {"name": "channel_padding_4", "op": "Pad", "input": ["max_pooling2d_1/MaxPool", "channel_padding_4/paddings"], "attr": {"T": {"type": "DT_FLOAT"}, "Tpaddings": {"type": "DT_INT32"}}}, {"name": "add_5", "op": "Add", "input": ["BiasAdd_12", "channel_padding_4"], "attr": {"T": {"type": "DT_FLOAT"}}}, {"name": "activation_6/Relu", "op": "Relu", "input": ["add_5"], "attr": {"T": {"type": "DT_FLOAT"}}}, {"name": "depthwise_conv2d_6", "op": "DepthwiseConv2dNative", "input": ["activation_6/Relu", "transpose_13"], "attr": {"padding": {"s": "U0FNRQ=="}, "dilations": {"list": {"i": ["1", "1", "1", "1"]}}, "T": {"type": "DT_FLOAT"}, "strides": {"list": {"i": ["1", "1", "1", "1"]}}, "data_format": {"s": "TkhXQw=="}}}, {"name": "channel_padding_5", "op": "Pad", "input": ["activation_6/Relu", "channel_padding_10/paddings"], "attr": {"T": {"type": "DT_FLOAT"}, "Tpaddings": {"type": "DT_INT32"}}}, {"name": "BiasAdd_14", "op": "_FusedConv2D", "input": ["depthwise_conv2d_6", "transpose_14", "Const_29"], "device": "/device:CPU:0", "attr": {"dilations": {"list": {"i": ["1", "1", "1", "1"]}}, "T": {"type": "DT_FLOAT"}, "data_format": {"s": "TkhXQw=="}, "strides": {"list": {"i": ["1", "1", "1", "1"]}}, "use_cudnn_on_gpu": {"b": true}, "explicit_paddings": {"list": {}}, "num_args": {"i": "1"}, "epsilon": {"f": 0.0}, "padding": {"s": "VkFMSUQ="}, "fused_ops": {"list": {"s": ["Qmlhc0FkZA=="]}}}}, {"name": "add_6", "op": "Add", "input": ["BiasAdd_14", "channel_padding_5"], "attr": {"T": {"type": "DT_FLOAT"}}}, {"name": "activation_7/Relu", "op": "Relu", "input": ["add_6"], "attr": {"T": {"type": "DT_FLOAT"}}}, {"name": "depthwise_conv2d_7", "op": "DepthwiseConv2dNative", "input": ["activation_7/Relu", "transpose_15"], "attr": {"dilations": {"list": {"i": ["1", "1", "1", "1"]}}, "padding": {"s": "U0FNRQ=="}, "T": {"type": "DT_FLOAT"}, "data_format": {"s": "TkhXQw=="}, "strides": {"list": {"i": ["1", "1", "1", "1"]}}}}, {"name": "channel_padding_6", "op": "Pad", "input": ["activation_7/Relu", "channel_padding_10/paddings"], "attr": {"Tpaddings": {"type": "DT_INT32"}, "T": {"type": "DT_FLOAT"}}}, {"name": "BiasAdd_16", "op": "_FusedConv2D", "input": ["depthwise_conv2d_7", "transpose_16", "Const_33"], "device": "/device:CPU:0", "attr": {"dilations": {"list": {"i": ["1", "1", "1", "1"]}}, "T": {"type": "DT_FLOAT"}, "strides": {"list": {"i": ["1", "1", "1", "1"]}}, "data_format": {"s": "TkhXQw=="}, "explicit_paddings": {"list": {}}, "use_cudnn_on_gpu": {"b": true}, "num_args": {"i": "1"}, "epsilon": {"f": 0.0}, "padding": {"s": "VkFMSUQ="}, "fused_ops": {"list": {"s": ["Qmlhc0FkZA=="]}}}}, {"name": "add_7", "op": "Add", "input": ["BiasAdd_16", "channel_padding_6"], "attr": {"T": {"type": "DT_FLOAT"}}}, {"name": "activation_8/Relu", "op": "Relu", "input": ["add_7"], "attr": {"T": {"type": "DT_FLOAT"}}}, {"name": "depthwise_conv2d_8", "op": "DepthwiseConv2dNative", "input": ["activation_8/Relu", "transpose_17"], "attr": {"dilations": {"list": {"i": ["1", "1", "1", "1"]}}, "padding": {"s": "U0FNRQ=="}, "T": {"type": "DT_FLOAT"}, "data_format": {"s": "TkhXQw=="}, "strides": {"list": {"i": ["1", "1", "1", "1"]}}}}, {"name": "channel_padding_7", "op": "Pad", "input": ["activation_8/Relu", "channel_padding_10/paddings"], "attr": {"T": {"type": "DT_FLOAT"}, "Tpaddings": {"type": "DT_INT32"}}}, {"name": "BiasAdd_18", "op": "_FusedConv2D", "input": ["depthwise_conv2d_8", "transpose_18", "Const_37"], "device": "/device:CPU:0", "attr": {"strides": {"list": {"i": ["1", "1", "1", "1"]}}, "data_format": {"s": "TkhXQw=="}, "explicit_paddings": {"list": {}}, "use_cudnn_on_gpu": {"b": true}, "num_args": {"i": "1"}, "epsilon": {"f": 0.0}, "padding": {"s": "VkFMSUQ="}, "fused_ops": {"list": {"s": ["Qmlhc0FkZA=="]}}, "dilations": {"list": {"i": ["1", "1", "1", "1"]}}, "T": {"type": "DT_FLOAT"}}}, {"name": "add_8", "op": "Add", "input": ["BiasAdd_18", "channel_padding_7"], "attr": {"T": {"type": "DT_FLOAT"}}}, {"name": "activation_9/Relu", "op": "Relu", "input": ["add_8"], "attr": {"T": {"type": "DT_FLOAT"}}}, {"name": "depthwise_conv2d_9", "op": "DepthwiseConv2dNative", "input": ["activation_9/Relu", "transpose_19"], "attr": {"dilations": {"list": {"i": ["1", "1", "1", "1"]}}, "padding": {"s": "U0FNRQ=="}, "T": {"type": "DT_FLOAT"}, "strides": {"list": {"i": ["1", "1", "1", "1"]}}, "data_format": {"s": "TkhXQw=="}}}, {"name": "channel_padding_8", "op": "Pad", "input": ["activation_9/Relu", "channel_padding_10/paddings"], "attr": {"T": {"type": "DT_FLOAT"}, "Tpaddings": {"type": "DT_INT32"}}}, {"name": "BiasAdd_20", "op": "_FusedConv2D", "input": ["depthwise_conv2d_9", "transpose_20", "Const_41"], "device": "/device:CPU:0", "attr": {"dilations": {"list": {"i": ["1", "1", "1", "1"]}}, "T": {"type": "DT_FLOAT"}, "data_format": {"s": "TkhXQw=="}, "strides": {"list": {"i": ["1", "1", "1", "1"]}}, "explicit_paddings": {"list": {}}, "use_cudnn_on_gpu": {"b": true}, "num_args": {"i": "1"}, "epsilon": {"f": 0.0}, "padding": {"s": "VkFMSUQ="}, "fused_ops": {"list": {"s": ["Qmlhc0FkZA=="]}}}}, {"name": "add_9", "op": "Add", "input": ["BiasAdd_20", "channel_padding_8"], "attr": {"T": {"type": "DT_FLOAT"}}}, {"name": "activation_10/Relu", "op": "Relu", "input": ["add_9"], "attr": {"T": {"type": "DT_FLOAT"}}}, {"name": "depthwise_conv2d_10", "op": "DepthwiseConv2dNative", "input": ["activation_10/Relu", "transpose_21"], "attr": {"dilations": {"list": {"i": ["1", "1", "1", "1"]}}, "padding": {"s": "U0FNRQ=="}, "T": {"type": "DT_FLOAT"}, "data_format": {"s": "TkhXQw=="}, "strides": {"list": {"i": ["1", "1", "1", "1"]}}}}, {"name": "channel_padding_9", "op": "Pad", "input": ["activation_10/Relu", "channel_padding_10/paddings"], "attr": {"T": {"type": "DT_FLOAT"}, "Tpaddings": {"type": "DT_INT32"}}}, {"name": "BiasAdd_22", "op": "_FusedConv2D", "input": ["depthwise_conv2d_10", "transpose_22", "Const_45"], "device": "/device:CPU:0", "attr": {"dilations": {"list": {"i": ["1", "1", "1", "1"]}}, "T": {"type": "DT_FLOAT"}, "data_format": {"s": "TkhXQw=="}, "strides": {"list": {"i": ["1", "1", "1", "1"]}}, "explicit_paddings": {"list": {}}, "use_cudnn_on_gpu": {"b": true}, "num_args": {"i": "1"}, "epsilon": {"f": 0.0}, "padding": {"s": "VkFMSUQ="}, "fused_ops": {"list": {"s": ["Qmlhc0FkZA=="]}}}}, {"name": "add_10", "op": "Add", "input": ["BiasAdd_22", "channel_padding_9"], "attr": {"T": {"type": "DT_FLOAT"}}}, {"name": "activation_11/Relu", "op": "Relu", "input": ["add_10"], "attr": {"T": {"type": "DT_FLOAT"}}}, {"name": "BiasAdd_33", "op": "_FusedConv2D", "input": ["activation_11/Relu", "transpose_33", "Const_67"], "device": "/device:CPU:0", "attr": {"fused_ops": {"list": {"s": ["Qmlhc0FkZA=="]}}, "dilations": {"list": {"i": ["1", "1", "1", "1"]}}, "T": {"type": "DT_FLOAT"}, "data_format": {"s": "TkhXQw=="}, "strides": {"list": {"i": ["1", "1", "1", "1"]}}, "explicit_paddings": {"list": {}}, "use_cudnn_on_gpu": {"b": true}, "num_args": {"i": "1"}, "epsilon": {"f": 0.0}, "padding": {"s": "U0FNRQ=="}}}, {"name": "BiasAdd_35", "op": "_FusedConv2D", "input": ["activation_11/Relu", "transpose_35", "Const_71"], "device": "/device:CPU:0", "attr": {"epsilon": {"f": 0.0}, "padding": {"s": "U0FNRQ=="}, "fused_ops": {"list": {"s": ["Qmlhc0FkZA=="]}}, "dilations": {"list": {"i": ["1", "1", "1", "1"]}}, "T": {"type": "DT_FLOAT"}, "strides": {"list": {"i": ["1", "1", "1", "1"]}}, "data_format": {"s": "TkhXQw=="}, "use_cudnn_on_gpu": {"b": true}, "explicit_paddings": {"list": {}}, "num_args": {"i": "1"}}}, {"name": "depthwise_conv2d_11", "op": "DepthwiseConv2dNative", "input": ["activation_11/Relu", "transpose_23"], "attr": {"dilations": {"list": {"i": ["1", "1", "1", "1"]}}, "padding": {"s": "U0FNRQ=="}, "T": {"type": "DT_FLOAT"}, "strides": {"list": {"i": ["1", "2", "2", "1"]}}, "data_format": {"s": "TkhXQw=="}}}, {"name": "max_pooling2d_2/MaxPool", "op": "MaxPool", "input": ["activation_11/Relu"], "attr": {"ksize": {"list": {"i": ["1", "2", "2", "1"]}}, "padding": {"s": "U0FNRQ=="}, "T": {"type": "DT_FLOAT"}, "data_format": {"s": "TkhXQw=="}, "strides": {"list": {"i": ["1", "2", "2", "1"]}}}}, {"name": "reshape", "op": "Reshape", "input": ["BiasAdd_33", "stack"], "attr": {"T": {"type": "DT_FLOAT"}, "Tshape": {"type": "DT_INT32"}}}, {"name": "reshape_1", "op": "Reshape", "input": ["BiasAdd_35", "stack_2"], "attr": {"T": {"type": "DT_FLOAT"}, "Tshape": {"type": "DT_INT32"}}}, {"name": "BiasAdd_24", "op": "_FusedConv2D", "input": ["depthwise_conv2d_11", "transpose_24", "Const_49"], "device": "/device:CPU:0", "attr": {"dilations": {"list": {"i": ["1", "1", "1", "1"]}}, "T": {"type": "DT_FLOAT"}, "data_format": {"s": "TkhXQw=="}, "strides": {"list": {"i": ["1", "1", "1", "1"]}}, "use_cudnn_on_gpu": {"b": true}, "explicit_paddings": {"list": {}}, "num_args": {"i": "1"}, "epsilon": {"f": 0.0}, "padding": {"s": "VkFMSUQ="}, "fused_ops": {"list": {"s": ["Qmlhc0FkZA=="]}}}}, {"name": "channel_padding_10", "op": "Pad", "input": ["max_pooling2d_2/MaxPool", "channel_padding_10/paddings"], "attr": {"T": {"type": "DT_FLOAT"}, "Tpaddings": {"type": "DT_INT32"}}}, {"name": "add_11", "op": "Add", "input": ["BiasAdd_24", "channel_padding_10"], "attr": {"T": {"type": "DT_FLOAT"}}}, {"name": "activation_12/Relu", "op": "Relu", "input": ["add_11"], "attr": {"T": {"type": "DT_FLOAT"}}}, {"name": "depthwise_conv2d_12", "op": "DepthwiseConv2dNative", "input": ["activation_12/Relu", "transpose_25"], "attr": {"T": {"type": "DT_FLOAT"}, "data_format": {"s": "TkhXQw=="}, "strides": {"list": {"i": ["1", "1", "1", "1"]}}, "dilations": {"list": {"i": ["1", "1", "1", "1"]}}, "padding": {"s": "U0FNRQ=="}}}, {"name": "BiasAdd_26", "op": "_FusedConv2D", "input": ["depthwise_conv2d_12", "transpose_26", "Const_53"], "device": "/device:CPU:0", "attr": {"dilations": {"list": {"i": ["1", "1", "1", "1"]}}, "T": {"type": "DT_FLOAT"}, "data_format": {"s": "TkhXQw=="}, "strides": {"list": {"i": ["1", "1", "1", "1"]}}, "explicit_paddings": {"list": {}}, "use_cudnn_on_gpu": {"b": true}, "num_args": {"i": "1"}, "epsilon": {"f": 0.0}, "padding": {"s": "VkFMSUQ="}, "fused_ops": {"list": {"s": ["Qmlhc0FkZA=="]}}}}, {"name": "add_12", "op": "Add", "input": ["BiasAdd_26", "activation_12/Relu"], "attr": {"T": {"type": "DT_FLOAT"}}}, {"name": "activation_13/Relu", "op": "Relu", "input": ["add_12"], "attr": {"T": {"type": "DT_FLOAT"}}}, {"name": "depthwise_conv2d_13", "op": "DepthwiseConv2dNative", "input": ["activation_13/Relu", "transpose_27"], "attr": {"T": {"type": "DT_FLOAT"}, "data_format": {"s": "TkhXQw=="}, "strides": {"list": {"i": ["1", "1", "1", "1"]}}, "padding": {"s": "U0FNRQ=="}, "dilations": {"list": {"i": ["1", "1", "1", "1"]}}}}, {"name": "BiasAdd_28", "op": "_FusedConv2D", "input": ["depthwise_conv2d_13", "transpose_28", "Const_57"], "device": "/device:CPU:0", "attr": {"num_args": {"i": "1"}, "epsilon": {"f": 0.0}, "padding": {"s": "VkFMSUQ="}, "fused_ops": {"list": {"s": ["Qmlhc0FkZA=="]}}, "dilations": {"list": {"i": ["1", "1", "1", "1"]}}, "T": {"type": "DT_FLOAT"}, "strides": {"list": {"i": ["1", "1", "1", "1"]}}, "data_format": {"s": "TkhXQw=="}, "use_cudnn_on_gpu": {"b": true}, "explicit_paddings": {"list": {}}}}, {"name": "add_13", "op": "Add", "input": ["BiasAdd_28", "activation_13/Relu"], "attr": {"T": {"type": "DT_FLOAT"}}}, {"name": "activation_14/Relu", "op": "Relu", "input": ["add_13"], "attr": {"T": {"type": "DT_FLOAT"}}}, {"name": "depthwise_conv2d_14", "op": "DepthwiseConv2dNative", "input": ["activation_14/Relu", "transpose_29"], "attr": {"data_format": {"s": "TkhXQw=="}, "strides": {"list": {"i": ["1", "1", "1", "1"]}}, "dilations": {"list": {"i": ["1", "1", "1", "1"]}}, "padding": {"s": "U0FNRQ=="}, "T": {"type": "DT_FLOAT"}}}, {"name": "BiasAdd_30", "op": "_FusedConv2D", "input": ["depthwise_conv2d_14", "transpose_30", "Const_61"], "device": "/device:CPU:0", "attr": {"fused_ops": {"list": {"s": ["Qmlhc0FkZA=="]}}, "dilations": {"list": {"i": ["1", "1", "1", "1"]}}, "T": {"type": "DT_FLOAT"}, "data_format": {"s": "TkhXQw=="}, "strides": {"list": {"i": ["1", "1", "1", "1"]}}, "explicit_paddings": {"list": {}}, "use_cudnn_on_gpu": {"b": true}, "num_args": {"i": "1"}, "epsilon": {"f": 0.0}, "padding": {"s": "VkFMSUQ="}}}, {"name": "add_14", "op": "Add", "input": ["BiasAdd_30", "activation_14/Relu"], "attr": {"T": {"type": "DT_FLOAT"}}}, {"name": "activation_15/Relu", "op": "Relu", "input": ["add_14"], "attr": {"T": {"type": "DT_FLOAT"}}}, {"name": "depthwise_conv2d_15", "op": "DepthwiseConv2dNative", "input": ["activation_15/Relu", "transpose_31"], "attr": {"data_format": {"s": "TkhXQw=="}, "strides": {"list": {"i": ["1", "1", "1", "1"]}}, "dilations": {"list": {"i": ["1", "1", "1", "1"]}}, "padding": {"s": "U0FNRQ=="}, "T": {"type": "DT_FLOAT"}}}, {"name": "BiasAdd_32", "op": "_FusedConv2D", "input": ["depthwise_conv2d_15", "transpose_32", "Const_65"], "device": "/device:CPU:0", "attr": {"dilations": {"list": {"i": ["1", "1", "1", "1"]}}, "T": {"type": "DT_FLOAT"}, "strides": {"list": {"i": ["1", "1", "1", "1"]}}, "data_format": {"s": "TkhXQw=="}, "explicit_paddings": {"list": {}}, "use_cudnn_on_gpu": {"b": true}, "num_args": {"i": "1"}, "epsilon": {"f": 0.0}, "padding": {"s": "VkFMSUQ="}, "fused_ops": {"list": {"s": ["Qmlhc0FkZA=="]}}}}, {"name": "add_15", "op": "Add", "input": ["BiasAdd_32", "activation_15/Relu"], "attr": {"T": {"type": "DT_FLOAT"}}}, {"name": "activation_16/Relu", "op": "Relu", "input": ["add_15"], "attr": {"T": {"type": "DT_FLOAT"}}}, {"name": "BiasAdd_34", "op": "_FusedConv2D", "input": ["activation_16/Relu", "transpose_34", "Const_69"], "device": "/device:CPU:0", "attr": {"dilations": {"list": {"i": ["1", "1", "1", "1"]}}, "T": {"type": "DT_FLOAT"}, "data_format": {"s": "TkhXQw=="}, "strides": {"list": {"i": ["1", "1", "1", "1"]}}, "explicit_paddings": {"list": {}}, "use_cudnn_on_gpu": {"b": true}, "num_args": {"i": "1"}, "epsilon": {"f": 0.0}, "padding": {"s": "U0FNRQ=="}, "fused_ops": {"list": {"s": ["Qmlhc0FkZA=="]}}}}, {"name": "BiasAdd_36", "op": "_FusedConv2D", "input": ["activation_16/Relu", "transpose_36", "Const_73"], "device": "/device:CPU:0", "attr": {"T": {"type": "DT_FLOAT"}, "strides": {"list": {"i": ["1", "1", "1", "1"]}}, "data_format": {"s": "TkhXQw=="}, "use_cudnn_on_gpu": {"b": true}, "explicit_paddings": {"list": {}}, "num_args": {"i": "1"}, "epsilon": {"f": 0.0}, "padding": {"s": "U0FNRQ=="}, "fused_ops": {"list": {"s": ["Qmlhc0FkZA=="]}}, "dilations": {"list": {"i": ["1", "1", "1", "1"]}}}}, {"name": "reshape_2", "op": "Reshape", "input": ["BiasAdd_34", "stack_1"], "attr": {"T": {"type": "DT_FLOAT"}, "Tshape": {"type": "DT_INT32"}}}, {"name": "reshape_3", "op": "Reshape", "input": ["BiasAdd_36", "stack_3"], "attr": {"T": {"type": "DT_FLOAT"}, "Tshape": {"type": "DT_INT32"}}}, {"name": "classificators", "op": "ConcatV2", "input": ["reshape", "reshape_2", "classificators/axis"], "attr": {"Tidx": {"type": "DT_INT32"}, "T": {"type": "DT_FLOAT"}, "N": {"i": "2"}}}, {"name": "regressors", "op": "ConcatV2", "input": ["reshape_1", "reshape_3", "classificators/axis"], "attr": {"N": {"i": "2"}, "Tidx": {"type": "DT_INT32"}, "T": {"type": "DT_FLOAT"}}}], "versions": {"producer": 175}}, "weightsManifest": [{"paths": ["group1-shard1of1.dat"], "weights": [{"name": "transpose_33", "shape": [1, 1, 88, 2], "dtype": "float32"}, {"name": "Const_67", "shape": [2], "dtype": "float32"}, {"name": "stack", "shape": [3], "dtype": "int32"}, {"name": "transpose_34", "shape": [1, 1, 96, 6], "dtype": "float32"}, {"name": "Const_69", "shape": [6], "dtype": "float32"}, {"name": "stack_1", "shape": [3], "dtype": "int32"}, {"name": "transpose_35", "shape": [1, 1, 88, 32], "dtype": "float32"}, {"name": "Const_71", "shape": [32], "dtype": "float32"}, {"name": "stack_2", "shape": [3], "dtype": "int32"}, {"name": "transpose_31", "shape": [3, 3, 96, 1], "dtype": "float32"}, {"name": "transpose_32", "shape": [1, 1, 96, 96], "dtype": "float32"}, {"name": "Const_65", "shape": [96], "dtype": "float32"}, {"name": "transpose_29", "shape": [3, 3, 96, 1], "dtype": "float32"}, {"name": "transpose_30", "shape": [1, 1, 96, 96], "dtype": "float32"}, {"name": "Const_61", "shape": [96], "dtype": "float32"}, {"name": "transpose_27", "shape": [3, 3, 96, 1], "dtype": "float32"}, {"name": "transpose_28", "shape": [1, 1, 96, 96], "dtype": "float32"}, {"name": "Const_57", "shape": [96], "dtype": "float32"}, {"name": "transpose_25", "shape": [3, 3, 96, 1], "dtype": "float32"}, {"name": "transpose_26", "shape": [1, 1, 96, 96], "dtype": "float32"}, {"name": "Const_53", "shape": [96], "dtype": "float32"}, {"name": "transpose_23", "shape": [3, 3, 88, 1], "dtype": "float32"}, {"name": "transpose_24", "shape": [1, 1, 88, 96], "dtype": "float32"}, {"name": "Const_49", "shape": [96], "dtype": "float32"}, {"name": "transpose_21", "shape": [3, 3, 80, 1], "dtype": "float32"}, {"name": "transpose_22", "shape": [1, 1, 80, 88], "dtype": "float32"}, {"name": "Const_45", "shape": [88], "dtype": "float32"}, {"name": "transpose_19", "shape": [3, 3, 72, 1], "dtype": "float32"}, {"name": "transpose_20", "shape": [1, 1, 72, 80], "dtype": "float32"}, {"name": "Const_41", "shape": [80], "dtype": "float32"}, {"name": "transpose_17", "shape": [3, 3, 64, 1], "dtype": "float32"}, {"name": "transpose_18", "shape": [1, 1, 64, 72], "dtype": "float32"}, {"name": "Const_37", "shape": [72], "dtype": "float32"}, {"name": "transpose_15", "shape": [3, 3, 56, 1], "dtype": "float32"}, {"name": "transpose_16", "shape": [1, 1, 56, 64], "dtype": "float32"}, {"name": "Const_33", "shape": [64], "dtype": "float32"}, {"name": "transpose_13", "shape": [3, 3, 48, 1], "dtype": "float32"}, {"name": "transpose_14", "shape": [1, 1, 48, 56], "dtype": "float32"}, {"name": "Const_29", "shape": [56], "dtype": "float32"}, {"name": "transpose_11", "shape": [3, 3, 42, 1], "dtype": "float32"}, {"name": "transpose_12", "shape": [1, 1, 42, 48], "dtype": "float32"}, {"name": "Const_25", "shape": [48], "dtype": "float32"}, {"name": "transpose_9", "shape": [3, 3, 36, 1], "dtype": "float32"}, {"name": "transpose_10", "shape": [1, 1, 36, 42], "dtype": "float32"}, {"name": "Const_21", "shape": [42], "dtype": "float32"}, {"name": "transpose_7", "shape": [3, 3, 32, 1], "dtype": "float32"}, {"name": "transpose_8", "shape": [1, 1, 32, 36], "dtype": "float32"}, {"name": "Const_17", "shape": [36], "dtype": "float32"}, {"name": "transpose_5", "shape": [3, 3, 28, 1], "dtype": "float32"}, {"name": "transpose_6", "shape": [1, 1, 28, 32], "dtype": "float32"}, {"name": "Const_13", "shape": [32], "dtype": "float32"}, {"name": "transpose_3", "shape": [3, 3, 24, 1], "dtype": "float32"}, {"name": "transpose_4", "shape": [1, 1, 24, 28], "dtype": "float32"}, {"name": "Const_9", "shape": [28], "dtype": "float32"}, {"name": "transpose_1", "shape": [3, 3, 24, 1], "dtype": "float32"}, {"name": "transpose_2", "shape": [1, 1, 24, 24], "dtype": "float32"}, {"name": "Const_5", "shape": [24], "dtype": "float32"}, {"name": "transpose", "shape": [5, 5, 3, 24], "dtype": "float32"}, {"name": "Const_1", "shape": [24], "dtype": "float32"}, {"name": "channel_padding_2/paddings", "shape": [4, 2], "dtype": "int32"}, {"name": "classificators/axis", "shape": [], "dtype": "int32"}, {"name": "channel_padding_4/paddings", "shape": [4, 2], "dtype": "int32"}, {"name": "channel_padding_10/paddings", "shape": [4, 2], "dtype": "int32"}, {"name": "transpose_36", "shape": [1, 1, 96, 96], "dtype": "float32"}, {"name": "Const_73", "shape": [96], "dtype": "float32"}, {"name": "stack_3", "shape": [3], "dtype": "int32"}]}]}