{"format": "graph-model", "generatedBy": "2.0.0", "convertedBy": "TensorFlow.js Converter v1.7.4r1", "userDefinedMetadata": {"signature": {"inputs": {"preprocessed_images_pixels:0": {"name": "preprocessed_images_pixels:0", "dtype": "DT_FLOAT", "tensorShape": {"dim": [{"size": "-1"}, {"size": "-1"}, {"size": "-1"}, {"size": "3"}]}}}, "outputs": {"Identity:0": {"name": "Identity:0", "dtype": "DT_FLOAT", "tensorShape": {"dim": [{"size": "-1"}, {"size": "1"}]}}, "Identity_1:0": {"name": "Identity_1:0", "dtype": "DT_FLOAT", "tensorShape": {"dim": [{"size": "-1"}, {"size": "11"}]}}, "Identity_2:0": {"name": "Identity_2:0", "dtype": "DT_FLOAT", "tensorShape": {"dim": [{"size": "-1"}, {"size": "1"}]}}, "Identity_3:0": {"name": "Identity_3:0", "dtype": "DT_FLOAT", "tensorShape": {"dim": [{"size": "-1"}, {"size": "1"}]}}, "Identity_4:0": {"name": "Identity_4:0", "dtype": "DT_FLOAT", "tensorShape": {"dim": [{"size": "-1"}, {"size": "1"}]}}}}}, "modelTopology": {"node": [{"name": "preprocessed_images_pixels", "op": "Placeholder", "attr": {"shape": {"shape": {"dim": [{"size": "-1"}, {"size": "-1"}, {"size": "-1"}, {"size": "3"}]}}, "dtype": {"type": "DT_FLOAT"}}}, {"name": "StatefulPartitionedCall/model_1/conv2d/Conv2D_weights", "op": "Const", "attr": {"value": {"tensor": {"dtype": "DT_FLOAT", "tensorShape": {"dim": [{"size": "3"}, {"size": "3"}, {"size": "3"}, {"size": "32"}]}}}, "dtype": {"type": "DT_FLOAT"}}}, {"name": "StatefulPartitionedCall/model_1/conv2d/Conv2D_bn_offset", "op": "Const", "attr": {"value": {"tensor": {"dtype": "DT_FLOAT", "tensorShape": {"dim": [{"size": "32"}]}}}, "dtype": {"type": "DT_FLOAT"}}}, {"name": "StatefulPartitionedCall/model_1/conv2/Conv2D_weights", "op": "Const", "attr": {"dtype": {"type": "DT_FLOAT"}, "value": {"tensor": {"dtype": "DT_FLOAT", "tensorShape": {"dim": [{"size": "3"}, {"size": "3"}, {"size": "32"}, {"size": "32"}]}}}}}, {"name": "StatefulPartitionedCall/model_1/conv2/Conv2D_bn_offset", "op": "Const", "attr": {"value": {"tensor": {"dtype": "DT_FLOAT", "tensorShape": {"dim": [{"size": "32"}]}}}, "dtype": {"type": "DT_FLOAT"}}}, {"name": "StatefulPartitionedCall/model_1/conv3/Conv2D_weights", "op": "Const", "attr": {"dtype": {"type": "DT_FLOAT"}, "value": {"tensor": {"dtype": "DT_FLOAT", "tensorShape": {"dim": [{"size": "3"}, {"size": "3"}, {"size": "32"}, {"size": "32"}]}}}}}, {"name": "StatefulPartitionedCall/model_1/conv3/Conv2D_bn_offset", "op": "Const", "attr": {"value": {"tensor": {"dtype": "DT_FLOAT", "tensorShape": {"dim": [{"size": "32"}]}}}, "dtype": {"type": "DT_FLOAT"}}}, {"name": "StatefulPartitionedCall/model_1/conv4/Conv2D_weights", "op": "Const", "attr": {"value": {"tensor": {"dtype": "DT_FLOAT", "tensorShape": {"dim": [{"size": "3"}, {"size": "3"}, {"size": "32"}, {"size": "32"}]}}}, "dtype": {"type": "DT_FLOAT"}}}, {"name": "StatefulPartitionedCall/model_1/conv4/Conv2D_bn_offset", "op": "Const", "attr": {"value": {"tensor": {"dtype": "DT_FLOAT", "tensorShape": {"dim": [{"size": "32"}]}}}, "dtype": {"type": "DT_FLOAT"}}}, {"name": "StatefulPartitionedCall/model_1/white_norm/Const", "op": "Const", "input": ["^preprocessed_images_pixels"], "attr": {"value": {"tensor": {"dtype": "DT_FLOAT", "tensorShape": {}}}, "dtype": {"type": "DT_FLOAT"}}}, {"name": "StatefulPartitionedCall/model_1/global_average_pooling2d_4/Mean/reduction_indices", "op": "Const", "input": ["^preprocessed_images_pixels"], "attr": {"value": {"tensor": {"dtype": "DT_INT32", "tensorShape": {"dim": [{"size": "2"}]}}}, "dtype": {"type": "DT_INT32"}}}, {"name": "StatefulPartitionedCall/model_1/multiply_4/ExpandDims/dim", "op": "Const", "input": ["^preprocessed_images_pixels"], "attr": {"value": {"tensor": {"dtype": "DT_INT32", "tensorShape": {}}}, "dtype": {"type": "DT_INT32"}}}, {"name": "StatefulPartitionedCall/model_1/flatten/strided_slice/stack", "op": "Const", "input": ["^preprocessed_images_pixels"], "attr": {"dtype": {"type": "DT_INT32"}, "value": {"tensor": {"dtype": "DT_INT32", "tensorShape": {"dim": [{"size": "1"}]}}}}}, {"name": "StatefulPartitionedCall/model_1/flatten/strided_slice/stack_1", "op": "Const", "input": ["^preprocessed_images_pixels"], "attr": {"dtype": {"type": "DT_INT32"}, "value": {"tensor": {"dtype": "DT_INT32", "tensorShape": {"dim": [{"size": "1"}]}}}}}, {"name": "StatefulPartitionedCall/model_1/flatten/Reshape/shape/1", "op": "Const", "input": ["^preprocessed_images_pixels"], "attr": {"value": {"tensor": {"dtype": "DT_INT32", "tensorShape": {}}}, "dtype": {"type": "DT_INT32"}}}, {"name": "StatefulPartitionedCall/model_1/W1/BiasAdd/ReadVariableOp", "op": "Const", "input": ["^preprocessed_images_pixels"], "attr": {"value": {"tensor": {"dtype": "DT_FLOAT", "tensorShape": {"dim": [{"size": "11"}]}}}, "dtype": {"type": "DT_FLOAT"}}}, {"name": "StatefulPartitionedCall/model_1/W1/MatMul/ReadVariableOp", "op": "Const", "input": ["^preprocessed_images_pixels"], "attr": {"value": {"tensor": {"dtype": "DT_FLOAT", "tensorShape": {"dim": [{"size": "3200"}, {"size": "11"}]}}}, "dtype": {"type": "DT_FLOAT"}}}, {"name": "StatefulPartitionedCall/model_1/age/BiasAdd/ReadVariableOp", "op": "Const", "input": ["^preprocessed_images_pixels"], "attr": {"dtype": {"type": "DT_FLOAT"}, "value": {"tensor": {"dtype": "DT_FLOAT", "tensorShape": {"dim": [{"size": "1"}]}}}}}, {"name": "StatefulPartitionedCall/model_1/age/MatMul/ReadVariableOp", "op": "Const", "input": ["^preprocessed_images_pixels"], "attr": {"value": {"tensor": {"dtype": "DT_FLOAT", "tensorShape": {"dim": [{"size": "11"}, {"size": "1"}]}}}, "dtype": {"type": "DT_FLOAT"}}}, {"name": "StatefulPartitionedCall/model_1/blink/BiasAdd/ReadVariableOp", "op": "Const", "input": ["^preprocessed_images_pixels"], "attr": {"value": {"tensor": {"dtype": "DT_FLOAT", "tensorShape": {"dim": [{"size": "1"}]}}}, "dtype": {"type": "DT_FLOAT"}}}, {"name": "StatefulPartitionedCall/model_1/blink/MatMul/ReadVariableOp", "op": "Const", "input": ["^preprocessed_images_pixels"], "attr": {"dtype": {"type": "DT_FLOAT"}, "value": {"tensor": {"dtype": "DT_FLOAT", "tensorShape": {"dim": [{"size": "3200"}, {"size": "1"}]}}}}}, {"name": "StatefulPartitionedCall/model_1/conv5/BiasAdd/ReadVariableOp", "op": "Const", "input": ["^preprocessed_images_pixels"], "attr": {"value": {"tensor": {"dtype": "DT_FLOAT", "tensorShape": {"dim": [{"size": "32"}]}}}, "dtype": {"type": "DT_FLOAT"}}}, {"name": "StatefulPartitionedCall/model_1/conv5/Conv2D/ReadVariableOp", "op": "Const", "input": ["^preprocessed_images_pixels"], "attr": {"dtype": {"type": "DT_FLOAT"}, "value": {"tensor": {"dtype": "DT_FLOAT", "tensorShape": {"dim": [{"size": "1"}, {"size": "1"}, {"size": "32"}, {"size": "32"}]}}}}}, {"name": "StatefulPartitionedCall/model_1/dense/BiasAdd/ReadVariableOp", "op": "Const", "input": ["^preprocessed_images_pixels"], "attr": {"value": {"tensor": {"dtype": "DT_FLOAT", "tensorShape": {"dim": [{"size": "16"}]}}}, "dtype": {"type": "DT_FLOAT"}}}, {"name": "StatefulPartitionedCall/model_1/dense/MatMul/ReadVariableOp", "op": "Const", "input": ["^preprocessed_images_pixels"], "attr": {"value": {"tensor": {"dtype": "DT_FLOAT", "tensorShape": {"dim": [{"size": "32"}, {"size": "16"}]}}}, "dtype": {"type": "DT_FLOAT"}}}, {"name": "StatefulPartitionedCall/model_1/dense_1/BiasAdd/ReadVariableOp", "op": "Const", "input": ["^preprocessed_images_pixels"], "attr": {"value": {"tensor": {"dtype": "DT_FLOAT", "tensorShape": {"dim": [{"size": "32"}]}}}, "dtype": {"type": "DT_FLOAT"}}}, {"name": "StatefulPartitionedCall/model_1/dense_1/MatMul/ReadVariableOp", "op": "Const", "input": ["^preprocessed_images_pixels"], "attr": {"value": {"tensor": {"dtype": "DT_FLOAT", "tensorShape": {"dim": [{"size": "16"}, {"size": "32"}]}}}, "dtype": {"type": "DT_FLOAT"}}}, {"name": "StatefulPartitionedCall/model_1/dense_2/BiasAdd/ReadVariableOp", "op": "Const", "input": ["^preprocessed_images_pixels"], "attr": {"value": {"tensor": {"dtype": "DT_FLOAT", "tensorShape": {"dim": [{"size": "16"}]}}}, "dtype": {"type": "DT_FLOAT"}}}, {"name": "StatefulPartitionedCall/model_1/dense_2/MatMul/ReadVariableOp", "op": "Const", "input": ["^preprocessed_images_pixels"], "attr": {"value": {"tensor": {"dtype": "DT_FLOAT", "tensorShape": {"dim": [{"size": "32"}, {"size": "16"}]}}}, "dtype": {"type": "DT_FLOAT"}}}, {"name": "StatefulPartitionedCall/model_1/dense_3/BiasAdd/ReadVariableOp", "op": "Const", "input": ["^preprocessed_images_pixels"], "attr": {"value": {"tensor": {"dtype": "DT_FLOAT", "tensorShape": {"dim": [{"size": "32"}]}}}, "dtype": {"type": "DT_FLOAT"}}}, {"name": "StatefulPartitionedCall/model_1/dense_3/MatMul/ReadVariableOp", "op": "Const", "input": ["^preprocessed_images_pixels"], "attr": {"dtype": {"type": "DT_FLOAT"}, "value": {"tensor": {"dtype": "DT_FLOAT", "tensorShape": {"dim": [{"size": "16"}, {"size": "32"}]}}}}}, {"name": "StatefulPartitionedCall/model_1/dense_4/BiasAdd/ReadVariableOp", "op": "Const", "input": ["^preprocessed_images_pixels"], "attr": {"value": {"tensor": {"dtype": "DT_FLOAT", "tensorShape": {"dim": [{"size": "16"}]}}}, "dtype": {"type": "DT_FLOAT"}}}, {"name": "StatefulPartitionedCall/model_1/dense_4/MatMul/ReadVariableOp", "op": "Const", "input": ["^preprocessed_images_pixels"], "attr": {"value": {"tensor": {"dtype": "DT_FLOAT", "tensorShape": {"dim": [{"size": "32"}, {"size": "16"}]}}}, "dtype": {"type": "DT_FLOAT"}}}, {"name": "StatefulPartitionedCall/model_1/dense_5/BiasAdd/ReadVariableOp", "op": "Const", "input": ["^preprocessed_images_pixels"], "attr": {"value": {"tensor": {"dtype": "DT_FLOAT", "tensorShape": {"dim": [{"size": "32"}]}}}, "dtype": {"type": "DT_FLOAT"}}}, {"name": "StatefulPartitionedCall/model_1/dense_5/MatMul/ReadVariableOp", "op": "Const", "input": ["^preprocessed_images_pixels"], "attr": {"dtype": {"type": "DT_FLOAT"}, "value": {"tensor": {"dtype": "DT_FLOAT", "tensorShape": {"dim": [{"size": "16"}, {"size": "32"}]}}}}}, {"name": "StatefulPartitionedCall/model_1/dense_6/BiasAdd/ReadVariableOp", "op": "Const", "input": ["^preprocessed_images_pixels"], "attr": {"value": {"tensor": {"dtype": "DT_FLOAT", "tensorShape": {"dim": [{"size": "16"}]}}}, "dtype": {"type": "DT_FLOAT"}}}, {"name": "StatefulPartitionedCall/model_1/dense_6/MatMul/ReadVariableOp", "op": "Const", "input": ["^preprocessed_images_pixels"], "attr": {"dtype": {"type": "DT_FLOAT"}, "value": {"tensor": {"dtype": "DT_FLOAT", "tensorShape": {"dim": [{"size": "32"}, {"size": "16"}]}}}}}, {"name": "StatefulPartitionedCall/model_1/dense_7/BiasAdd/ReadVariableOp", "op": "Const", "input": ["^preprocessed_images_pixels"], "attr": {"value": {"tensor": {"dtype": "DT_FLOAT", "tensorShape": {"dim": [{"size": "32"}]}}}, "dtype": {"type": "DT_FLOAT"}}}, {"name": "StatefulPartitionedCall/model_1/dense_7/MatMul/ReadVariableOp", "op": "Const", "input": ["^preprocessed_images_pixels"], "attr": {"value": {"tensor": {"dtype": "DT_FLOAT", "tensorShape": {"dim": [{"size": "16"}, {"size": "32"}]}}}, "dtype": {"type": "DT_FLOAT"}}}, {"name": "StatefulPartitionedCall/model_1/dense_8/BiasAdd/ReadVariableOp", "op": "Const", "input": ["^preprocessed_images_pixels"], "attr": {"dtype": {"type": "DT_FLOAT"}, "value": {"tensor": {"dtype": "DT_FLOAT", "tensorShape": {"dim": [{"size": "16"}]}}}}}, {"name": "StatefulPartitionedCall/model_1/dense_8/MatMul/ReadVariableOp", "op": "Const", "input": ["^preprocessed_images_pixels"], "attr": {"value": {"tensor": {"dtype": "DT_FLOAT", "tensorShape": {"dim": [{"size": "32"}, {"size": "16"}]}}}, "dtype": {"type": "DT_FLOAT"}}}, {"name": "StatefulPartitionedCall/model_1/dense_9/BiasAdd/ReadVariableOp", "op": "Const", "input": ["^preprocessed_images_pixels"], "attr": {"value": {"tensor": {"dtype": "DT_FLOAT", "tensorShape": {"dim": [{"size": "32"}]}}}, "dtype": {"type": "DT_FLOAT"}}}, {"name": "StatefulPartitionedCall/model_1/dense_9/MatMul/ReadVariableOp", "op": "Const", "input": ["^preprocessed_images_pixels"], "attr": {"dtype": {"type": "DT_FLOAT"}, "value": {"tensor": {"dtype": "DT_FLOAT", "tensorShape": {"dim": [{"size": "16"}, {"size": "32"}]}}}}}, {"name": "StatefulPartitionedCall/model_1/object/BiasAdd/ReadVariableOp", "op": "Const", "input": ["^preprocessed_images_pixels"], "attr": {"dtype": {"type": "DT_FLOAT"}, "value": {"tensor": {"dtype": "DT_FLOAT", "tensorShape": {"dim": [{"size": "1"}]}}}}}, {"name": "StatefulPartitionedCall/model_1/object/MatMul/ReadVariableOp", "op": "Const", "input": ["^preprocessed_images_pixels"], "attr": {"dtype": {"type": "DT_FLOAT"}, "value": {"tensor": {"dtype": "DT_FLOAT", "tensorShape": {"dim": [{"size": "3200"}, {"size": "1"}]}}}}}, {"name": "StatefulPartitionedCall/model_1/smile/BiasAdd/ReadVariableOp", "op": "Const", "input": ["^preprocessed_images_pixels"], "attr": {"dtype": {"type": "DT_FLOAT"}, "value": {"tensor": {"dtype": "DT_FLOAT", "tensorShape": {"dim": [{"size": "1"}]}}}}}, {"name": "StatefulPartitionedCall/model_1/smile/MatMul/ReadVariableOp", "op": "Const", "input": ["^preprocessed_images_pixels"], "attr": {"dtype": {"type": "DT_FLOAT"}, "value": {"tensor": {"dtype": "DT_FLOAT", "tensorShape": {"dim": [{"size": "3200"}, {"size": "1"}]}}}}}, {"name": "StatefulPartitionedCall/model_1/white_norm/sub", "op": "Sub", "input": ["preprocessed_images_pixels", "StatefulPartitionedCall/model_1/white_norm/Const"], "attr": {"T": {"type": "DT_FLOAT"}}}, {"name": "Func/StatefulPartitionedCall/output_control_node/_61", "op": "NoOp", "input": ["^StatefulPartitionedCall/model_1/W1/BiasAdd/ReadVariableOp", "^StatefulPartitionedCall/model_1/W1/MatMul/ReadVariableOp", "^StatefulPartitionedCall/model_1/age/BiasAdd/ReadVariableOp", "^StatefulPartitionedCall/model_1/age/MatMul/ReadVariableOp", "^StatefulPartitionedCall/model_1/blink/BiasAdd/ReadVariableOp", "^StatefulPartitionedCall/model_1/blink/MatMul/ReadVariableOp", "^StatefulPartitionedCall/model_1/conv5/BiasAdd/ReadVariableOp", "^StatefulPartitionedCall/model_1/conv5/Conv2D/ReadVariableOp", "^StatefulPartitionedCall/model_1/dense/BiasAdd/ReadVariableOp", "^StatefulPartitionedCall/model_1/dense/MatMul/ReadVariableOp", "^StatefulPartitionedCall/model_1/dense_1/BiasAdd/ReadVariableOp", "^StatefulPartitionedCall/model_1/dense_1/MatMul/ReadVariableOp", "^StatefulPartitionedCall/model_1/dense_2/BiasAdd/ReadVariableOp", "^StatefulPartitionedCall/model_1/dense_2/MatMul/ReadVariableOp", "^StatefulPartitionedCall/model_1/dense_3/BiasAdd/ReadVariableOp", "^StatefulPartitionedCall/model_1/dense_3/MatMul/ReadVariableOp", "^StatefulPartitionedCall/model_1/dense_4/BiasAdd/ReadVariableOp", "^StatefulPartitionedCall/model_1/dense_4/MatMul/ReadVariableOp", "^StatefulPartitionedCall/model_1/dense_5/BiasAdd/ReadVariableOp", "^StatefulPartitionedCall/model_1/dense_5/MatMul/ReadVariableOp", "^StatefulPartitionedCall/model_1/dense_6/BiasAdd/ReadVariableOp", "^StatefulPartitionedCall/model_1/dense_6/MatMul/ReadVariableOp", "^StatefulPartitionedCall/model_1/dense_7/BiasAdd/ReadVariableOp", "^StatefulPartitionedCall/model_1/dense_7/MatMul/ReadVariableOp", "^StatefulPartitionedCall/model_1/dense_8/BiasAdd/ReadVariableOp", "^StatefulPartitionedCall/model_1/dense_8/MatMul/ReadVariableOp", "^StatefulPartitionedCall/model_1/dense_9/BiasAdd/ReadVariableOp", "^StatefulPartitionedCall/model_1/dense_9/MatMul/ReadVariableOp", "^StatefulPartitionedCall/model_1/object/BiasAdd/ReadVariableOp", "^StatefulPartitionedCall/model_1/object/MatMul/ReadVariableOp", "^StatefulPartitionedCall/model_1/smile/BiasAdd/ReadVariableOp", "^StatefulPartitionedCall/model_1/smile/MatMul/ReadVariableOp"]}, {"name": "StatefulPartitionedCall/model_1/activation/Relu", "op": "_FusedConv2D", "input": ["StatefulPartitionedCall/model_1/white_norm/sub", "StatefulPartitionedCall/model_1/conv2d/Conv2D_weights", "StatefulPartitionedCall/model_1/conv2d/Conv2D_bn_offset"], "device": "/device:CPU:0", "attr": {"T": {"type": "DT_FLOAT"}, "data_format": {"s": "TkhXQw=="}, "strides": {"list": {"i": ["1", "1", "1", "1"]}}, "explicit_paddings": {"list": {}}, "use_cudnn_on_gpu": {"b": true}, "num_args": {"i": "1"}, "epsilon": {"f": 0.0}, "padding": {"s": "VkFMSUQ="}, "fused_ops": {"list": {"s": ["Qmlhc0FkZA==", "UmVsdQ=="]}}, "dilations": {"list": {"i": ["1", "1", "1", "1"]}}}}, {"name": "StatefulPartitionedCall/model_1/average_pooling2d/AvgPool", "op": "AvgPool", "input": ["StatefulPartitionedCall/model_1/activation/Relu"], "attr": {"T": {"type": "DT_FLOAT"}, "data_format": {"s": "TkhXQw=="}, "strides": {"list": {"i": ["1", "2", "2", "1"]}}, "ksize": {"list": {"i": ["1", "2", "2", "1"]}}, "padding": {"s": "VkFMSUQ="}}}, {"name": "StatefulPartitionedCall/model_1/global_average_pooling2d/Mean", "op": "Mean", "input": ["StatefulPartitionedCall/model_1/average_pooling2d/AvgPool", "StatefulPartitionedCall/model_1/global_average_pooling2d_4/Mean/reduction_indices"], "attr": {"T": {"type": "DT_FLOAT"}, "Tidx": {"type": "DT_INT32"}, "keep_dims": {"b": false}}}, {"name": "StatefulPartitionedCall/model_1/dense/Relu", "op": "_FusedMatMul", "input": ["StatefulPartitionedCall/model_1/global_average_pooling2d/Mean", "StatefulPartitionedCall/model_1/dense/MatMul/ReadVariableOp", "StatefulPartitionedCall/model_1/dense/BiasAdd/ReadVariableOp"], "device": "/device:CPU:0", "attr": {"T": {"type": "DT_FLOAT"}, "num_args": {"i": "1"}, "epsilon": {"f": 0.0}, "fused_ops": {"list": {"s": ["Qmlhc0FkZA==", "UmVsdQ=="]}}, "transpose_a": {"b": false}, "transpose_b": {"b": false}}}, {"name": "StatefulPartitionedCall/model_1/dense_1/BiasAdd", "op": "_FusedMatMul", "input": ["StatefulPartitionedCall/model_1/dense/Relu", "StatefulPartitionedCall/model_1/dense_1/MatMul/ReadVariableOp", "StatefulPartitionedCall/model_1/dense_1/BiasAdd/ReadVariableOp"], "device": "/device:CPU:0", "attr": {"T": {"type": "DT_FLOAT"}, "num_args": {"i": "1"}, "epsilon": {"f": 0.0}, "fused_ops": {"list": {"s": ["Qmlhc0FkZA=="]}}, "transpose_a": {"b": false}, "transpose_b": {"b": false}}}, {"name": "StatefulPartitionedCall/model_1/dense_1/Sigmoid", "op": "Sigmoid", "input": ["StatefulPartitionedCall/model_1/dense_1/BiasAdd"], "attr": {"T": {"type": "DT_FLOAT"}}}, {"name": "StatefulPartitionedCall/model_1/multiply/ExpandDims", "op": "ExpandDims", "input": ["StatefulPartitionedCall/model_1/dense_1/Sigmoid", "StatefulPartitionedCall/model_1/multiply_4/ExpandDims/dim"], "attr": {"Tdim": {"type": "DT_INT32"}, "T": {"type": "DT_FLOAT"}}}, {"name": "StatefulPartitionedCall/model_1/multiply/ExpandDims_1", "op": "ExpandDims", "input": ["StatefulPartitionedCall/model_1/multiply/ExpandDims", "StatefulPartitionedCall/model_1/multiply_4/ExpandDims/dim"], "attr": {"T": {"type": "DT_FLOAT"}, "Tdim": {"type": "DT_INT32"}}}, {"name": "StatefulPartitionedCall/model_1/multiply/mul", "op": "Mul", "input": ["StatefulPartitionedCall/model_1/average_pooling2d/AvgPool", "StatefulPartitionedCall/model_1/multiply/ExpandDims_1"], "attr": {"T": {"type": "DT_FLOAT"}}}, {"name": "StatefulPartitionedCall/model_1/activation_1/Relu", "op": "_FusedConv2D", "input": ["StatefulPartitionedCall/model_1/multiply/mul", "StatefulPartitionedCall/model_1/conv2/Conv2D_weights", "StatefulPartitionedCall/model_1/conv2/Conv2D_bn_offset"], "device": "/device:CPU:0", "attr": {"epsilon": {"f": 0.0}, "padding": {"s": "VkFMSUQ="}, "fused_ops": {"list": {"s": ["Qmlhc0FkZA==", "UmVsdQ=="]}}, "dilations": {"list": {"i": ["1", "1", "1", "1"]}}, "T": {"type": "DT_FLOAT"}, "strides": {"list": {"i": ["1", "1", "1", "1"]}}, "data_format": {"s": "TkhXQw=="}, "use_cudnn_on_gpu": {"b": true}, "explicit_paddings": {"list": {}}, "num_args": {"i": "1"}}}, {"name": "StatefulPartitionedCall/model_1/average_pooling2d_1/AvgPool", "op": "AvgPool", "input": ["StatefulPartitionedCall/model_1/activation_1/Relu"], "attr": {"strides": {"list": {"i": ["1", "2", "2", "1"]}}, "data_format": {"s": "TkhXQw=="}, "ksize": {"list": {"i": ["1", "2", "2", "1"]}}, "padding": {"s": "VkFMSUQ="}, "T": {"type": "DT_FLOAT"}}}, {"name": "StatefulPartitionedCall/model_1/global_average_pooling2d_1/Mean", "op": "Mean", "input": ["StatefulPartitionedCall/model_1/average_pooling2d_1/AvgPool", "StatefulPartitionedCall/model_1/global_average_pooling2d_4/Mean/reduction_indices"], "attr": {"T": {"type": "DT_FLOAT"}, "Tidx": {"type": "DT_INT32"}, "keep_dims": {"b": false}}}, {"name": "StatefulPartitionedCall/model_1/dense_2/Relu", "op": "_FusedMatMul", "input": ["StatefulPartitionedCall/model_1/global_average_pooling2d_1/Mean", "StatefulPartitionedCall/model_1/dense_2/MatMul/ReadVariableOp", "StatefulPartitionedCall/model_1/dense_2/BiasAdd/ReadVariableOp"], "device": "/device:CPU:0", "attr": {"T": {"type": "DT_FLOAT"}, "num_args": {"i": "1"}, "epsilon": {"f": 0.0}, "fused_ops": {"list": {"s": ["Qmlhc0FkZA==", "UmVsdQ=="]}}, "transpose_a": {"b": false}, "transpose_b": {"b": false}}}, {"name": "StatefulPartitionedCall/model_1/dense_3/BiasAdd", "op": "_FusedMatMul", "input": ["StatefulPartitionedCall/model_1/dense_2/Relu", "StatefulPartitionedCall/model_1/dense_3/MatMul/ReadVariableOp", "StatefulPartitionedCall/model_1/dense_3/BiasAdd/ReadVariableOp"], "device": "/device:CPU:0", "attr": {"num_args": {"i": "1"}, "epsilon": {"f": 0.0}, "fused_ops": {"list": {"s": ["Qmlhc0FkZA=="]}}, "transpose_a": {"b": false}, "transpose_b": {"b": false}, "T": {"type": "DT_FLOAT"}}}, {"name": "StatefulPartitionedCall/model_1/dense_3/Sigmoid", "op": "Sigmoid", "input": ["StatefulPartitionedCall/model_1/dense_3/BiasAdd"], "attr": {"T": {"type": "DT_FLOAT"}}}, {"name": "StatefulPartitionedCall/model_1/multiply_1/ExpandDims", "op": "ExpandDims", "input": ["StatefulPartitionedCall/model_1/dense_3/Sigmoid", "StatefulPartitionedCall/model_1/multiply_4/ExpandDims/dim"], "attr": {"Tdim": {"type": "DT_INT32"}, "T": {"type": "DT_FLOAT"}}}, {"name": "StatefulPartitionedCall/model_1/multiply_1/ExpandDims_1", "op": "ExpandDims", "input": ["StatefulPartitionedCall/model_1/multiply_1/ExpandDims", "StatefulPartitionedCall/model_1/multiply_4/ExpandDims/dim"], "attr": {"Tdim": {"type": "DT_INT32"}, "T": {"type": "DT_FLOAT"}}}, {"name": "StatefulPartitionedCall/model_1/multiply_1/mul", "op": "Mul", "input": ["StatefulPartitionedCall/model_1/average_pooling2d_1/AvgPool", "StatefulPartitionedCall/model_1/multiply_1/ExpandDims_1"], "attr": {"T": {"type": "DT_FLOAT"}}}, {"name": "StatefulPartitionedCall/model_1/activation_2/Relu", "op": "_FusedConv2D", "input": ["StatefulPartitionedCall/model_1/multiply_1/mul", "StatefulPartitionedCall/model_1/conv3/Conv2D_weights", "StatefulPartitionedCall/model_1/conv3/Conv2D_bn_offset"], "device": "/device:CPU:0", "attr": {"dilations": {"list": {"i": ["1", "1", "1", "1"]}}, "T": {"type": "DT_FLOAT"}, "strides": {"list": {"i": ["1", "1", "1", "1"]}}, "data_format": {"s": "TkhXQw=="}, "explicit_paddings": {"list": {}}, "use_cudnn_on_gpu": {"b": true}, "num_args": {"i": "1"}, "epsilon": {"f": 0.0}, "padding": {"s": "VkFMSUQ="}, "fused_ops": {"list": {"s": ["Qmlhc0FkZA==", "UmVsdQ=="]}}}}, {"name": "StatefulPartitionedCall/model_1/average_pooling2d_2/AvgPool", "op": "AvgPool", "input": ["StatefulPartitionedCall/model_1/activation_2/Relu"], "attr": {"ksize": {"list": {"i": ["1", "2", "2", "1"]}}, "padding": {"s": "VkFMSUQ="}, "T": {"type": "DT_FLOAT"}, "strides": {"list": {"i": ["1", "2", "2", "1"]}}, "data_format": {"s": "TkhXQw=="}}}, {"name": "StatefulPartitionedCall/model_1/global_average_pooling2d_2/Mean", "op": "Mean", "input": ["StatefulPartitionedCall/model_1/average_pooling2d_2/AvgPool", "StatefulPartitionedCall/model_1/global_average_pooling2d_4/Mean/reduction_indices"], "attr": {"T": {"type": "DT_FLOAT"}, "Tidx": {"type": "DT_INT32"}, "keep_dims": {"b": false}}}, {"name": "StatefulPartitionedCall/model_1/dense_4/Relu", "op": "_FusedMatMul", "input": ["StatefulPartitionedCall/model_1/global_average_pooling2d_2/Mean", "StatefulPartitionedCall/model_1/dense_4/MatMul/ReadVariableOp", "StatefulPartitionedCall/model_1/dense_4/BiasAdd/ReadVariableOp"], "device": "/device:CPU:0", "attr": {"num_args": {"i": "1"}, "epsilon": {"f": 0.0}, "fused_ops": {"list": {"s": ["Qmlhc0FkZA==", "UmVsdQ=="]}}, "transpose_a": {"b": false}, "transpose_b": {"b": false}, "T": {"type": "DT_FLOAT"}}}, {"name": "StatefulPartitionedCall/model_1/dense_5/BiasAdd", "op": "_FusedMatMul", "input": ["StatefulPartitionedCall/model_1/dense_4/Relu", "StatefulPartitionedCall/model_1/dense_5/MatMul/ReadVariableOp", "StatefulPartitionedCall/model_1/dense_5/BiasAdd/ReadVariableOp"], "device": "/device:CPU:0", "attr": {"transpose_a": {"b": false}, "transpose_b": {"b": false}, "T": {"type": "DT_FLOAT"}, "num_args": {"i": "1"}, "epsilon": {"f": 0.0}, "fused_ops": {"list": {"s": ["Qmlhc0FkZA=="]}}}}, {"name": "StatefulPartitionedCall/model_1/dense_5/Sigmoid", "op": "Sigmoid", "input": ["StatefulPartitionedCall/model_1/dense_5/BiasAdd"], "attr": {"T": {"type": "DT_FLOAT"}}}, {"name": "StatefulPartitionedCall/model_1/multiply_2/ExpandDims", "op": "ExpandDims", "input": ["StatefulPartitionedCall/model_1/dense_5/Sigmoid", "StatefulPartitionedCall/model_1/multiply_4/ExpandDims/dim"], "attr": {"T": {"type": "DT_FLOAT"}, "Tdim": {"type": "DT_INT32"}}}, {"name": "StatefulPartitionedCall/model_1/multiply_2/ExpandDims_1", "op": "ExpandDims", "input": ["StatefulPartitionedCall/model_1/multiply_2/ExpandDims", "StatefulPartitionedCall/model_1/multiply_4/ExpandDims/dim"], "attr": {"Tdim": {"type": "DT_INT32"}, "T": {"type": "DT_FLOAT"}}}, {"name": "StatefulPartitionedCall/model_1/multiply_2/mul", "op": "Mul", "input": ["StatefulPartitionedCall/model_1/average_pooling2d_2/AvgPool", "StatefulPartitionedCall/model_1/multiply_2/ExpandDims_1"], "attr": {"T": {"type": "DT_FLOAT"}}}, {"name": "StatefulPartitionedCall/model_1/activation_3/Relu", "op": "_FusedConv2D", "input": ["StatefulPartitionedCall/model_1/multiply_2/mul", "StatefulPartitionedCall/model_1/conv4/Conv2D_weights", "StatefulPartitionedCall/model_1/conv4/Conv2D_bn_offset"], "device": "/device:CPU:0", "attr": {"strides": {"list": {"i": ["1", "1", "1", "1"]}}, "data_format": {"s": "TkhXQw=="}, "use_cudnn_on_gpu": {"b": true}, "explicit_paddings": {"list": {}}, "num_args": {"i": "1"}, "epsilon": {"f": 0.0}, "padding": {"s": "VkFMSUQ="}, "fused_ops": {"list": {"s": ["Qmlhc0FkZA==", "UmVsdQ=="]}}, "dilations": {"list": {"i": ["1", "1", "1", "1"]}}, "T": {"type": "DT_FLOAT"}}}, {"name": "StatefulPartitionedCall/model_1/global_average_pooling2d_3/Mean", "op": "Mean", "input": ["StatefulPartitionedCall/model_1/activation_3/Relu", "StatefulPartitionedCall/model_1/global_average_pooling2d_4/Mean/reduction_indices"], "attr": {"T": {"type": "DT_FLOAT"}, "Tidx": {"type": "DT_INT32"}, "keep_dims": {"b": false}}}, {"name": "StatefulPartitionedCall/model_1/dense_6/Relu", "op": "_FusedMatMul", "input": ["StatefulPartitionedCall/model_1/global_average_pooling2d_3/Mean", "StatefulPartitionedCall/model_1/dense_6/MatMul/ReadVariableOp", "StatefulPartitionedCall/model_1/dense_6/BiasAdd/ReadVariableOp"], "device": "/device:CPU:0", "attr": {"transpose_b": {"b": false}, "T": {"type": "DT_FLOAT"}, "num_args": {"i": "1"}, "epsilon": {"f": 0.0}, "fused_ops": {"list": {"s": ["Qmlhc0FkZA==", "UmVsdQ=="]}}, "transpose_a": {"b": false}}}, {"name": "StatefulPartitionedCall/model_1/dense_7/BiasAdd", "op": "_FusedMatMul", "input": ["StatefulPartitionedCall/model_1/dense_6/Relu", "StatefulPartitionedCall/model_1/dense_7/MatMul/ReadVariableOp", "StatefulPartitionedCall/model_1/dense_7/BiasAdd/ReadVariableOp"], "device": "/device:CPU:0", "attr": {"transpose_a": {"b": false}, "transpose_b": {"b": false}, "T": {"type": "DT_FLOAT"}, "num_args": {"i": "1"}, "epsilon": {"f": 0.0}, "fused_ops": {"list": {"s": ["Qmlhc0FkZA=="]}}}}, {"name": "StatefulPartitionedCall/model_1/dense_7/Sigmoid", "op": "Sigmoid", "input": ["StatefulPartitionedCall/model_1/dense_7/BiasAdd"], "attr": {"T": {"type": "DT_FLOAT"}}}, {"name": "StatefulPartitionedCall/model_1/multiply_3/ExpandDims", "op": "ExpandDims", "input": ["StatefulPartitionedCall/model_1/dense_7/Sigmoid", "StatefulPartitionedCall/model_1/multiply_4/ExpandDims/dim"], "attr": {"Tdim": {"type": "DT_INT32"}, "T": {"type": "DT_FLOAT"}}}, {"name": "StatefulPartitionedCall/model_1/multiply_3/ExpandDims_1", "op": "ExpandDims", "input": ["StatefulPartitionedCall/model_1/multiply_3/ExpandDims", "StatefulPartitionedCall/model_1/multiply_4/ExpandDims/dim"], "attr": {"Tdim": {"type": "DT_INT32"}, "T": {"type": "DT_FLOAT"}}}, {"name": "StatefulPartitionedCall/model_1/multiply_3/mul", "op": "Mul", "input": ["StatefulPartitionedCall/model_1/activation_3/Relu", "StatefulPartitionedCall/model_1/multiply_3/ExpandDims_1"], "attr": {"T": {"type": "DT_FLOAT"}}}, {"name": "StatefulPartitionedCall/model_1/conv5/BiasAdd", "op": "_FusedConv2D", "input": ["StatefulPartitionedCall/model_1/multiply_3/mul", "StatefulPartitionedCall/model_1/conv5/Conv2D/ReadVariableOp", "StatefulPartitionedCall/model_1/conv5/BiasAdd/ReadVariableOp"], "device": "/device:CPU:0", "attr": {"strides": {"list": {"i": ["1", "1", "1", "1"]}}, "data_format": {"s": "TkhXQw=="}, "use_cudnn_on_gpu": {"b": true}, "explicit_paddings": {"list": {}}, "num_args": {"i": "1"}, "epsilon": {"f": 0.0}, "padding": {"s": "VkFMSUQ="}, "fused_ops": {"list": {"s": ["Qmlhc0FkZA=="]}}, "dilations": {"list": {"i": ["1", "1", "1", "1"]}}, "T": {"type": "DT_FLOAT"}}}, {"name": "StatefulPartitionedCall/model_1/global_average_pooling2d_4/Mean", "op": "Mean", "input": ["StatefulPartitionedCall/model_1/conv5/BiasAdd", "StatefulPartitionedCall/model_1/global_average_pooling2d_4/Mean/reduction_indices"], "attr": {"Tidx": {"type": "DT_INT32"}, "keep_dims": {"b": false}, "T": {"type": "DT_FLOAT"}}}, {"name": "StatefulPartitionedCall/model_1/dense_8/Relu", "op": "_FusedMatMul", "input": ["StatefulPartitionedCall/model_1/global_average_pooling2d_4/Mean", "StatefulPartitionedCall/model_1/dense_8/MatMul/ReadVariableOp", "StatefulPartitionedCall/model_1/dense_8/BiasAdd/ReadVariableOp"], "device": "/device:CPU:0", "attr": {"fused_ops": {"list": {"s": ["Qmlhc0FkZA==", "UmVsdQ=="]}}, "transpose_a": {"b": false}, "transpose_b": {"b": false}, "T": {"type": "DT_FLOAT"}, "num_args": {"i": "1"}, "epsilon": {"f": 0.0}}}, {"name": "StatefulPartitionedCall/model_1/dense_9/BiasAdd", "op": "_FusedMatMul", "input": ["StatefulPartitionedCall/model_1/dense_8/Relu", "StatefulPartitionedCall/model_1/dense_9/MatMul/ReadVariableOp", "StatefulPartitionedCall/model_1/dense_9/BiasAdd/ReadVariableOp"], "device": "/device:CPU:0", "attr": {"transpose_b": {"b": false}, "T": {"type": "DT_FLOAT"}, "num_args": {"i": "1"}, "epsilon": {"f": 0.0}, "fused_ops": {"list": {"s": ["Qmlhc0FkZA=="]}}, "transpose_a": {"b": false}}}, {"name": "StatefulPartitionedCall/model_1/dense_9/Sigmoid", "op": "Sigmoid", "input": ["StatefulPartitionedCall/model_1/dense_9/BiasAdd"], "attr": {"T": {"type": "DT_FLOAT"}}}, {"name": "StatefulPartitionedCall/model_1/multiply_4/ExpandDims", "op": "ExpandDims", "input": ["StatefulPartitionedCall/model_1/dense_9/Sigmoid", "StatefulPartitionedCall/model_1/multiply_4/ExpandDims/dim"], "attr": {"Tdim": {"type": "DT_INT32"}, "T": {"type": "DT_FLOAT"}}}, {"name": "StatefulPartitionedCall/model_1/multiply_4/ExpandDims_1", "op": "ExpandDims", "input": ["StatefulPartitionedCall/model_1/multiply_4/ExpandDims", "StatefulPartitionedCall/model_1/multiply_4/ExpandDims/dim"], "attr": {"Tdim": {"type": "DT_INT32"}, "T": {"type": "DT_FLOAT"}}}, {"name": "StatefulPartitionedCall/model_1/multiply_4/mul", "op": "Mul", "input": ["StatefulPartitionedCall/model_1/conv5/BiasAdd", "StatefulPartitionedCall/model_1/multiply_4/ExpandDims_1"], "attr": {"T": {"type": "DT_FLOAT"}}}, {"name": "StatefulPartitionedCall/model_1/flatten/Shape", "op": "Shape", "input": ["StatefulPartitionedCall/model_1/multiply_4/mul"], "attr": {"T": {"type": "DT_FLOAT"}, "out_type": {"type": "DT_INT32"}}}, {"name": "StatefulPartitionedCall/model_1/flatten/strided_slice", "op": "StridedSlice", "input": ["StatefulPartitionedCall/model_1/flatten/Shape", "StatefulPartitionedCall/model_1/flatten/strided_slice/stack", "StatefulPartitionedCall/model_1/flatten/strided_slice/stack_1", "StatefulPartitionedCall/model_1/flatten/strided_slice/stack_1"], "attr": {"end_mask": {"i": "0"}, "Index": {"type": "DT_INT32"}, "T": {"type": "DT_INT32"}, "shrink_axis_mask": {"i": "1"}, "begin_mask": {"i": "0"}, "ellipsis_mask": {"i": "0"}, "new_axis_mask": {"i": "0"}}}, {"name": "StatefulPartitionedCall/model_1/flatten/Reshape/shape", "op": "Pack", "input": ["StatefulPartitionedCall/model_1/flatten/strided_slice", "StatefulPartitionedCall/model_1/flatten/Reshape/shape/1"], "attr": {"T": {"type": "DT_INT32"}, "axis": {"i": "0"}, "N": {"i": "2"}}}, {"name": "StatefulPartitionedCall/model_1/flatten/Reshape", "op": "Reshape", "input": ["StatefulPartitionedCall/model_1/multiply_4/mul", "StatefulPartitionedCall/model_1/flatten/Reshape/shape"], "attr": {"T": {"type": "DT_FLOAT"}, "Tshape": {"type": "DT_INT32"}}}, {"name": "StatefulPartitionedCall/model_1/W1/BiasAdd", "op": "_FusedMatMul", "input": ["StatefulPartitionedCall/model_1/flatten/Reshape", "StatefulPartitionedCall/model_1/W1/MatMul/ReadVariableOp", "StatefulPartitionedCall/model_1/W1/BiasAdd/ReadVariableOp"], "device": "/device:CPU:0", "attr": {"num_args": {"i": "1"}, "epsilon": {"f": 0.0}, "fused_ops": {"list": {"s": ["Qmlhc0FkZA=="]}}, "transpose_a": {"b": false}, "transpose_b": {"b": false}, "T": {"type": "DT_FLOAT"}}}, {"name": "StatefulPartitionedCall/model_1/object/BiasAdd", "op": "_FusedMatMul", "input": ["StatefulPartitionedCall/model_1/flatten/Reshape", "StatefulPartitionedCall/model_1/object/MatMul/ReadVariableOp", "StatefulPartitionedCall/model_1/object/BiasAdd/ReadVariableOp"], "device": "/device:CPU:0", "attr": {"fused_ops": {"list": {"s": ["Qmlhc0FkZA=="]}}, "transpose_a": {"b": false}, "transpose_b": {"b": false}, "T": {"type": "DT_FLOAT"}, "num_args": {"i": "1"}, "epsilon": {"f": 0.0}}}, {"name": "StatefulPartitionedCall/model_1/blink/BiasAdd", "op": "_FusedMatMul", "input": ["StatefulPartitionedCall/model_1/flatten/Reshape", "StatefulPartitionedCall/model_1/blink/MatMul/ReadVariableOp", "StatefulPartitionedCall/model_1/blink/BiasAdd/ReadVariableOp"], "device": "/device:CPU:0", "attr": {"num_args": {"i": "1"}, "epsilon": {"f": 0.0}, "fused_ops": {"list": {"s": ["Qmlhc0FkZA=="]}}, "transpose_a": {"b": false}, "transpose_b": {"b": false}, "T": {"type": "DT_FLOAT"}}}, {"name": "StatefulPartitionedCall/model_1/smile/BiasAdd", "op": "_FusedMatMul", "input": ["StatefulPartitionedCall/model_1/flatten/Reshape", "StatefulPartitionedCall/model_1/smile/MatMul/ReadVariableOp", "StatefulPartitionedCall/model_1/smile/BiasAdd/ReadVariableOp"], "device": "/device:CPU:0", "attr": {"transpose_b": {"b": false}, "T": {"type": "DT_FLOAT"}, "num_args": {"i": "1"}, "epsilon": {"f": 0.0}, "fused_ops": {"list": {"s": ["Qmlhc0FkZA=="]}}, "transpose_a": {"b": false}}}, {"name": "StatefulPartitionedCall/model_1/W1/Softmax", "op": "Softmax", "input": ["StatefulPartitionedCall/model_1/W1/BiasAdd"], "attr": {"T": {"type": "DT_FLOAT"}}}, {"name": "StatefulPartitionedCall/model_1/object/Sigmoid", "op": "Sigmoid", "input": ["StatefulPartitionedCall/model_1/object/BiasAdd"], "attr": {"T": {"type": "DT_FLOAT"}}}, {"name": "StatefulPartitionedCall/model_1/blink/Sigmoid", "op": "Sigmoid", "input": ["StatefulPartitionedCall/model_1/blink/BiasAdd"], "attr": {"T": {"type": "DT_FLOAT"}}}, {"name": "StatefulPartitionedCall/model_1/smile/Sigmoid", "op": "Sigmoid", "input": ["StatefulPartitionedCall/model_1/smile/BiasAdd"], "attr": {"T": {"type": "DT_FLOAT"}}}, {"name": "StatefulPartitionedCall/model_1/age/BiasAdd", "op": "_FusedMatMul", "input": ["StatefulPartitionedCall/model_1/W1/Softmax", "StatefulPartitionedCall/model_1/age/MatMul/ReadVariableOp", "StatefulPartitionedCall/model_1/age/BiasAdd/ReadVariableOp"], "device": "/device:CPU:0", "attr": {"epsilon": {"f": 0.0}, "fused_ops": {"list": {"s": ["Qmlhc0FkZA=="]}}, "transpose_a": {"b": false}, "transpose_b": {"b": false}, "T": {"type": "DT_FLOAT"}, "num_args": {"i": "1"}}}, {"name": "Identity_1", "op": "Identity", "input": ["StatefulPartitionedCall/model_1/W1/Softmax", "^Func/StatefulPartitionedCall/output_control_node/_61"], "attr": {"T": {"type": "DT_FLOAT"}}}, {"name": "Identity_4", "op": "Identity", "input": ["StatefulPartitionedCall/model_1/object/Sigmoid", "^Func/StatefulPartitionedCall/output_control_node/_61"], "attr": {"T": {"type": "DT_FLOAT"}}}, {"name": "Identity_2", "op": "Identity", "input": ["StatefulPartitionedCall/model_1/blink/Sigmoid", "^Func/StatefulPartitionedCall/output_control_node/_61"], "attr": {"T": {"type": "DT_FLOAT"}}}, {"name": "Identity_3", "op": "Identity", "input": ["StatefulPartitionedCall/model_1/smile/Sigmoid", "^Func/StatefulPartitionedCall/output_control_node/_61"], "attr": {"T": {"type": "DT_FLOAT"}}}, {"name": "Identity", "op": "Identity", "input": ["StatefulPartitionedCall/model_1/age/BiasAdd", "^Func/StatefulPartitionedCall/output_control_node/_61"], "attr": {"T": {"type": "DT_FLOAT"}}}], "versions": {"producer": 175}}, "weightsManifest": [{"paths": ["group1-shard1of1.dat"], "weights": [{"name": "StatefulPartitionedCall/model_1/conv2d/Conv2D_weights", "shape": [3, 3, 3, 32], "dtype": "float32"}, {"name": "StatefulPartitionedCall/model_1/conv2d/Conv2D_bn_offset", "shape": [32], "dtype": "float32"}, {"name": "StatefulPartitionedCall/model_1/conv2/Conv2D_weights", "shape": [3, 3, 32, 32], "dtype": "float32"}, {"name": "StatefulPartitionedCall/model_1/conv2/Conv2D_bn_offset", "shape": [32], "dtype": "float32"}, {"name": "StatefulPartitionedCall/model_1/conv3/Conv2D_weights", "shape": [3, 3, 32, 32], "dtype": "float32"}, {"name": "StatefulPartitionedCall/model_1/conv3/Conv2D_bn_offset", "shape": [32], "dtype": "float32"}, {"name": "StatefulPartitionedCall/model_1/conv4/Conv2D_weights", "shape": [3, 3, 32, 32], "dtype": "float32"}, {"name": "StatefulPartitionedCall/model_1/conv4/Conv2D_bn_offset", "shape": [32], "dtype": "float32"}, {"name": "StatefulPartitionedCall/model_1/white_norm/Const", "shape": [], "dtype": "float32"}, {"name": "StatefulPartitionedCall/model_1/global_average_pooling2d_4/Mean/reduction_indices", "shape": [2], "dtype": "int32"}, {"name": "StatefulPartitionedCall/model_1/multiply_4/ExpandDims/dim", "shape": [], "dtype": "int32"}, {"name": "StatefulPartitionedCall/model_1/flatten/strided_slice/stack", "shape": [1], "dtype": "int32"}, {"name": "StatefulPartitionedCall/model_1/flatten/strided_slice/stack_1", "shape": [1], "dtype": "int32"}, {"name": "StatefulPartitionedCall/model_1/flatten/Reshape/shape/1", "shape": [], "dtype": "int32"}, {"name": "StatefulPartitionedCall/model_1/W1/BiasAdd/ReadVariableOp", "shape": [11], "dtype": "float32"}, {"name": "StatefulPartitionedCall/model_1/W1/MatMul/ReadVariableOp", "shape": [3200, 11], "dtype": "float32"}, {"name": "StatefulPartitionedCall/model_1/age/BiasAdd/ReadVariableOp", "shape": [1], "dtype": "float32"}, {"name": "StatefulPartitionedCall/model_1/age/MatMul/ReadVariableOp", "shape": [11, 1], "dtype": "float32"}, {"name": "StatefulPartitionedCall/model_1/blink/BiasAdd/ReadVariableOp", "shape": [1], "dtype": "float32"}, {"name": "StatefulPartitionedCall/model_1/blink/MatMul/ReadVariableOp", "shape": [3200, 1], "dtype": "float32"}, {"name": "StatefulPartitionedCall/model_1/conv5/BiasAdd/ReadVariableOp", "shape": [32], "dtype": "float32"}, {"name": "StatefulPartitionedCall/model_1/conv5/Conv2D/ReadVariableOp", "shape": [1, 1, 32, 32], "dtype": "float32"}, {"name": "StatefulPartitionedCall/model_1/dense/BiasAdd/ReadVariableOp", "shape": [16], "dtype": "float32"}, {"name": "StatefulPartitionedCall/model_1/dense/MatMul/ReadVariableOp", "shape": [32, 16], "dtype": "float32"}, {"name": "StatefulPartitionedCall/model_1/dense_1/BiasAdd/ReadVariableOp", "shape": [32], "dtype": "float32"}, {"name": "StatefulPartitionedCall/model_1/dense_1/MatMul/ReadVariableOp", "shape": [16, 32], "dtype": "float32"}, {"name": "StatefulPartitionedCall/model_1/dense_2/BiasAdd/ReadVariableOp", "shape": [16], "dtype": "float32"}, {"name": "StatefulPartitionedCall/model_1/dense_2/MatMul/ReadVariableOp", "shape": [32, 16], "dtype": "float32"}, {"name": "StatefulPartitionedCall/model_1/dense_3/BiasAdd/ReadVariableOp", "shape": [32], "dtype": "float32"}, {"name": "StatefulPartitionedCall/model_1/dense_3/MatMul/ReadVariableOp", "shape": [16, 32], "dtype": "float32"}, {"name": "StatefulPartitionedCall/model_1/dense_4/BiasAdd/ReadVariableOp", "shape": [16], "dtype": "float32"}, {"name": "StatefulPartitionedCall/model_1/dense_4/MatMul/ReadVariableOp", "shape": [32, 16], "dtype": "float32"}, {"name": "StatefulPartitionedCall/model_1/dense_5/BiasAdd/ReadVariableOp", "shape": [32], "dtype": "float32"}, {"name": "StatefulPartitionedCall/model_1/dense_5/MatMul/ReadVariableOp", "shape": [16, 32], "dtype": "float32"}, {"name": "StatefulPartitionedCall/model_1/dense_6/BiasAdd/ReadVariableOp", "shape": [16], "dtype": "float32"}, {"name": "StatefulPartitionedCall/model_1/dense_6/MatMul/ReadVariableOp", "shape": [32, 16], "dtype": "float32"}, {"name": "StatefulPartitionedCall/model_1/dense_7/BiasAdd/ReadVariableOp", "shape": [32], "dtype": "float32"}, {"name": "StatefulPartitionedCall/model_1/dense_7/MatMul/ReadVariableOp", "shape": [16, 32], "dtype": "float32"}, {"name": "StatefulPartitionedCall/model_1/dense_8/BiasAdd/ReadVariableOp", "shape": [16], "dtype": "float32"}, {"name": "StatefulPartitionedCall/model_1/dense_8/MatMul/ReadVariableOp", "shape": [32, 16], "dtype": "float32"}, {"name": "StatefulPartitionedCall/model_1/dense_9/BiasAdd/ReadVariableOp", "shape": [32], "dtype": "float32"}, {"name": "StatefulPartitionedCall/model_1/dense_9/MatMul/ReadVariableOp", "shape": [16, 32], "dtype": "float32"}, {"name": "StatefulPartitionedCall/model_1/object/BiasAdd/ReadVariableOp", "shape": [1], "dtype": "float32"}, {"name": "StatefulPartitionedCall/model_1/object/MatMul/ReadVariableOp", "shape": [3200, 1], "dtype": "float32"}, {"name": "StatefulPartitionedCall/model_1/smile/BiasAdd/ReadVariableOp", "shape": [1], "dtype": "float32"}, {"name": "StatefulPartitionedCall/model_1/smile/MatMul/ReadVariableOp", "shape": [3200, 1], "dtype": "float32"}]}]}